{
    "format": "layers-model",
    "generatedBy": "keras v2.4.0",
    "convertedBy": "TensorFlow.js Converter v3.7.0",
    "modelTopology": {
        "keras_version": "2.4.0",
        "backend": "tensorflow",
        "model_config": {
            "class_name": "Functional",
            "config": {
                "name": "functional_1",
                "layers": [
                    {
                        "class_name": "InputLayer",
                        "config": {
                            "batch_input_shape": [null, 320, 320, 3],
                            "dtype": "float32",
                            "sparse": false,
                            "ragged": false,
                            "name": "input_1"
                        },
                        "name": "input_1",
                        "inbound_nodes": []
                    },
                    {
                        "class_name": "ZeroPadding2D",
                        "config": {
                            "name": "Conv1_pad",
                            "trainable": true,
                            "dtype": { "class_name": "Policy", "config": { "name": "mixed_float16" } },
                            "padding": [
                                [0, 1],
                                [0, 1]
                            ],
                            "data_format": "channels_last"
                        },
                        "name": "Conv1_pad",
                        "inbound_nodes": [[["input_1", 0, 0, {}]]]
                    },
                    {
                        "class_name": "Conv2D",
                        "config": {
                            "name": "Conv1",
                            "trainable": true,
                            "dtype": { "class_name": "Policy", "config": { "name": "mixed_float16" } },
                            "filters": 32,
                            "kernel_size": [3, 3],
                            "strides": [2, 2],
                            "padding": "valid",
                            "data_format": "channels_last",
                            "dilation_rate": [1, 1],
                            "groups": 1,
                            "activation": "linear",
                            "use_bias": false,
                            "kernel_initializer": { "class_name": "GlorotUniform", "config": { "seed": null } },
                            "bias_initializer": { "class_name": "Zeros", "config": {} },
                            "kernel_regularizer": { "class_name": "L2", "config": { "l2": 0.0005000000237487257 } },
                            "bias_regularizer": null,
                            "activity_regularizer": null,
                            "kernel_constraint": null,
                            "bias_constraint": null
                        },
                        "name": "Conv1",
                        "inbound_nodes": [[["Conv1_pad", 0, 0, {}]]]
                    },
                    {
                        "class_name": "BatchNormalization",
                        "config": {
                            "name": "bn_Conv1",
                            "trainable": true,
                            "dtype": { "class_name": "Policy", "config": { "name": "mixed_float16" } },
                            "axis": [3],
                            "momentum": 0.99,
                            "epsilon": 0.001,
                            "center": true,
                            "scale": true,
                            "beta_initializer": { "class_name": "Zeros", "config": {} },
                            "gamma_initializer": { "class_name": "Ones", "config": {} },
                            "moving_mean_initializer": { "class_name": "Zeros", "config": {} },
                            "moving_variance_initializer": { "class_name": "Ones", "config": {} },
                            "beta_regularizer": null,
                            "gamma_regularizer": null,
                            "beta_constraint": null,
                            "gamma_constraint": null
                        },
                        "name": "bn_Conv1",
                        "inbound_nodes": [[["Conv1", 0, 0, {}]]]
                    },
                    {
                        "class_name": "ReLU",
                        "config": {
                            "name": "Conv1_relu",
                            "trainable": true,
                            "dtype": { "class_name": "Policy", "config": { "name": "mixed_float16" } },
                            "max_value": 6.0,
                            "negative_slope": 0.0,
                            "threshold": 0.0
                        },
                        "name": "Conv1_relu",
                        "inbound_nodes": [[["bn_Conv1", 0, 0, {}]]]
                    },
                    {
                        "class_name": "DepthwiseConv2D",
                        "config": {
                            "name": "expanded_conv_depthwise",
                            "trainable": true,
                            "dtype": { "class_name": "Policy", "config": { "name": "mixed_float16" } },
                            "kernel_size": [3, 3],
                            "strides": [1, 1],
                            "padding": "same",
                            "data_format": "channels_last",
                            "dilation_rate": [1, 1],
                            "groups": 1,
                            "activation": "linear",
                            "use_bias": false,
                            "bias_initializer": { "class_name": "Zeros", "config": {} },
                            "bias_regularizer": null,
                            "activity_regularizer": null,
                            "bias_constraint": null,
                            "depth_multiplier": 1,
                            "depthwise_initializer": { "class_name": "GlorotUniform", "config": { "seed": null } },
                            "depthwise_regularizer": { "class_name": "L2", "config": { "l2": 0.0005000000237487257 } },
                            "depthwise_constraint": null
                        },
                        "name": "expanded_conv_depthwise",
                        "inbound_nodes": [[["Conv1_relu", 0, 0, {}]]]
                    },
                    {
                        "class_name": "BatchNormalization",
                        "config": {
                            "name": "expanded_conv_depthwise_BN",
                            "trainable": true,
                            "dtype": { "class_name": "Policy", "config": { "name": "mixed_float16" } },
                            "axis": [3],
                            "momentum": 0.99,
                            "epsilon": 0.001,
                            "center": true,
                            "scale": true,
                            "beta_initializer": { "class_name": "Zeros", "config": {} },
                            "gamma_initializer": { "class_name": "Ones", "config": {} },
                            "moving_mean_initializer": { "class_name": "Zeros", "config": {} },
                            "moving_variance_initializer": { "class_name": "Ones", "config": {} },
                            "beta_regularizer": null,
                            "gamma_regularizer": null,
                            "beta_constraint": null,
                            "gamma_constraint": null
                        },
                        "name": "expanded_conv_depthwise_BN",
                        "inbound_nodes": [[["expanded_conv_depthwise", 0, 0, {}]]]
                    },
                    {
                        "class_name": "ReLU",
                        "config": {
                            "name": "expanded_conv_depthwise_relu",
                            "trainable": true,
                            "dtype": { "class_name": "Policy", "config": { "name": "mixed_float16" } },
                            "max_value": 6.0,
                            "negative_slope": 0.0,
                            "threshold": 0.0
                        },
                        "name": "expanded_conv_depthwise_relu",
                        "inbound_nodes": [[["expanded_conv_depthwise_BN", 0, 0, {}]]]
                    },
                    {
                        "class_name": "Conv2D",
                        "config": {
                            "name": "expanded_conv_project",
                            "trainable": true,
                            "dtype": { "class_name": "Policy", "config": { "name": "mixed_float16" } },
                            "filters": 16,
                            "kernel_size": [1, 1],
                            "strides": [1, 1],
                            "padding": "same",
                            "data_format": "channels_last",
                            "dilation_rate": [1, 1],
                            "groups": 1,
                            "activation": "linear",
                            "use_bias": false,
                            "kernel_initializer": { "class_name": "GlorotUniform", "config": { "seed": null } },
                            "bias_initializer": { "class_name": "Zeros", "config": {} },
                            "kernel_regularizer": { "class_name": "L2", "config": { "l2": 0.0005000000237487257 } },
                            "bias_regularizer": null,
                            "activity_regularizer": null,
                            "kernel_constraint": null,
                            "bias_constraint": null
                        },
                        "name": "expanded_conv_project",
                        "inbound_nodes": [[["expanded_conv_depthwise_relu", 0, 0, {}]]]
                    },
                    {
                        "class_name": "BatchNormalization",
                        "config": {
                            "name": "expanded_conv_project_BN",
                            "trainable": true,
                            "dtype": { "class_name": "Policy", "config": { "name": "mixed_float16" } },
                            "axis": [3],
                            "momentum": 0.99,
                            "epsilon": 0.001,
                            "center": true,
                            "scale": true,
                            "beta_initializer": { "class_name": "Zeros", "config": {} },
                            "gamma_initializer": { "class_name": "Ones", "config": {} },
                            "moving_mean_initializer": { "class_name": "Zeros", "config": {} },
                            "moving_variance_initializer": { "class_name": "Ones", "config": {} },
                            "beta_regularizer": null,
                            "gamma_regularizer": null,
                            "beta_constraint": null,
                            "gamma_constraint": null
                        },
                        "name": "expanded_conv_project_BN",
                        "inbound_nodes": [[["expanded_conv_project", 0, 0, {}]]]
                    },
                    {
                        "class_name": "Conv2D",
                        "config": {
                            "name": "block_1_expand",
                            "trainable": true,
                            "dtype": { "class_name": "Policy", "config": { "name": "mixed_float16" } },
                            "filters": 96,
                            "kernel_size": [1, 1],
                            "strides": [1, 1],
                            "padding": "same",
                            "data_format": "channels_last",
                            "dilation_rate": [1, 1],
                            "groups": 1,
                            "activation": "linear",
                            "use_bias": false,
                            "kernel_initializer": { "class_name": "GlorotUniform", "config": { "seed": null } },
                            "bias_initializer": { "class_name": "Zeros", "config": {} },
                            "kernel_regularizer": { "class_name": "L2", "config": { "l2": 0.0005000000237487257 } },
                            "bias_regularizer": null,
                            "activity_regularizer": null,
                            "kernel_constraint": null,
                            "bias_constraint": null
                        },
                        "name": "block_1_expand",
                        "inbound_nodes": [[["expanded_conv_project_BN", 0, 0, {}]]]
                    },
                    {
                        "class_name": "BatchNormalization",
                        "config": {
                            "name": "block_1_expand_BN",
                            "trainable": true,
                            "dtype": { "class_name": "Policy", "config": { "name": "mixed_float16" } },
                            "axis": [3],
                            "momentum": 0.99,
                            "epsilon": 0.001,
                            "center": true,
                            "scale": true,
                            "beta_initializer": { "class_name": "Zeros", "config": {} },
                            "gamma_initializer": { "class_name": "Ones", "config": {} },
                            "moving_mean_initializer": { "class_name": "Zeros", "config": {} },
                            "moving_variance_initializer": { "class_name": "Ones", "config": {} },
                            "beta_regularizer": null,
                            "gamma_regularizer": null,
                            "beta_constraint": null,
                            "gamma_constraint": null
                        },
                        "name": "block_1_expand_BN",
                        "inbound_nodes": [[["block_1_expand", 0, 0, {}]]]
                    },
                    {
                        "class_name": "ReLU",
                        "config": {
                            "name": "block_1_expand_relu",
                            "trainable": true,
                            "dtype": { "class_name": "Policy", "config": { "name": "mixed_float16" } },
                            "max_value": 6.0,
                            "negative_slope": 0.0,
                            "threshold": 0.0
                        },
                        "name": "block_1_expand_relu",
                        "inbound_nodes": [[["block_1_expand_BN", 0, 0, {}]]]
                    },
                    {
                        "class_name": "ZeroPadding2D",
                        "config": {
                            "name": "block_1_pad",
                            "trainable": true,
                            "dtype": { "class_name": "Policy", "config": { "name": "mixed_float16" } },
                            "padding": [
                                [0, 1],
                                [0, 1]
                            ],
                            "data_format": "channels_last"
                        },
                        "name": "block_1_pad",
                        "inbound_nodes": [[["block_1_expand_relu", 0, 0, {}]]]
                    },
                    {
                        "class_name": "DepthwiseConv2D",
                        "config": {
                            "name": "block_1_depthwise",
                            "trainable": true,
                            "dtype": { "class_name": "Policy", "config": { "name": "mixed_float16" } },
                            "kernel_size": [3, 3],
                            "strides": [2, 2],
                            "padding": "valid",
                            "data_format": "channels_last",
                            "dilation_rate": [1, 1],
                            "groups": 1,
                            "activation": "linear",
                            "use_bias": false,
                            "bias_initializer": { "class_name": "Zeros", "config": {} },
                            "bias_regularizer": null,
                            "activity_regularizer": null,
                            "bias_constraint": null,
                            "depth_multiplier": 1,
                            "depthwise_initializer": { "class_name": "GlorotUniform", "config": { "seed": null } },
                            "depthwise_regularizer": { "class_name": "L2", "config": { "l2": 0.0005000000237487257 } },
                            "depthwise_constraint": null
                        },
                        "name": "block_1_depthwise",
                        "inbound_nodes": [[["block_1_pad", 0, 0, {}]]]
                    },
                    {
                        "class_name": "BatchNormalization",
                        "config": {
                            "name": "block_1_depthwise_BN",
                            "trainable": true,
                            "dtype": { "class_name": "Policy", "config": { "name": "mixed_float16" } },
                            "axis": [3],
                            "momentum": 0.99,
                            "epsilon": 0.001,
                            "center": true,
                            "scale": true,
                            "beta_initializer": { "class_name": "Zeros", "config": {} },
                            "gamma_initializer": { "class_name": "Ones", "config": {} },
                            "moving_mean_initializer": { "class_name": "Zeros", "config": {} },
                            "moving_variance_initializer": { "class_name": "Ones", "config": {} },
                            "beta_regularizer": null,
                            "gamma_regularizer": null,
                            "beta_constraint": null,
                            "gamma_constraint": null
                        },
                        "name": "block_1_depthwise_BN",
                        "inbound_nodes": [[["block_1_depthwise", 0, 0, {}]]]
                    },
                    {
                        "class_name": "ReLU",
                        "config": {
                            "name": "block_1_depthwise_relu",
                            "trainable": true,
                            "dtype": { "class_name": "Policy", "config": { "name": "mixed_float16" } },
                            "max_value": 6.0,
                            "negative_slope": 0.0,
                            "threshold": 0.0
                        },
                        "name": "block_1_depthwise_relu",
                        "inbound_nodes": [[["block_1_depthwise_BN", 0, 0, {}]]]
                    },
                    {
                        "class_name": "Conv2D",
                        "config": {
                            "name": "block_1_project",
                            "trainable": true,
                            "dtype": { "class_name": "Policy", "config": { "name": "mixed_float16" } },
                            "filters": 24,
                            "kernel_size": [1, 1],
                            "strides": [1, 1],
                            "padding": "same",
                            "data_format": "channels_last",
                            "dilation_rate": [1, 1],
                            "groups": 1,
                            "activation": "linear",
                            "use_bias": false,
                            "kernel_initializer": { "class_name": "GlorotUniform", "config": { "seed": null } },
                            "bias_initializer": { "class_name": "Zeros", "config": {} },
                            "kernel_regularizer": { "class_name": "L2", "config": { "l2": 0.0005000000237487257 } },
                            "bias_regularizer": null,
                            "activity_regularizer": null,
                            "kernel_constraint": null,
                            "bias_constraint": null
                        },
                        "name": "block_1_project",
                        "inbound_nodes": [[["block_1_depthwise_relu", 0, 0, {}]]]
                    },
                    {
                        "class_name": "BatchNormalization",
                        "config": {
                            "name": "block_1_project_BN",
                            "trainable": true,
                            "dtype": { "class_name": "Policy", "config": { "name": "mixed_float16" } },
                            "axis": [3],
                            "momentum": 0.99,
                            "epsilon": 0.001,
                            "center": true,
                            "scale": true,
                            "beta_initializer": { "class_name": "Zeros", "config": {} },
                            "gamma_initializer": { "class_name": "Ones", "config": {} },
                            "moving_mean_initializer": { "class_name": "Zeros", "config": {} },
                            "moving_variance_initializer": { "class_name": "Ones", "config": {} },
                            "beta_regularizer": null,
                            "gamma_regularizer": null,
                            "beta_constraint": null,
                            "gamma_constraint": null
                        },
                        "name": "block_1_project_BN",
                        "inbound_nodes": [[["block_1_project", 0, 0, {}]]]
                    },
                    {
                        "class_name": "Conv2D",
                        "config": {
                            "name": "block_2_expand",
                            "trainable": true,
                            "dtype": { "class_name": "Policy", "config": { "name": "mixed_float16" } },
                            "filters": 144,
                            "kernel_size": [1, 1],
                            "strides": [1, 1],
                            "padding": "same",
                            "data_format": "channels_last",
                            "dilation_rate": [1, 1],
                            "groups": 1,
                            "activation": "linear",
                            "use_bias": false,
                            "kernel_initializer": { "class_name": "GlorotUniform", "config": { "seed": null } },
                            "bias_initializer": { "class_name": "Zeros", "config": {} },
                            "kernel_regularizer": { "class_name": "L2", "config": { "l2": 0.0005000000237487257 } },
                            "bias_regularizer": null,
                            "activity_regularizer": null,
                            "kernel_constraint": null,
                            "bias_constraint": null
                        },
                        "name": "block_2_expand",
                        "inbound_nodes": [[["block_1_project_BN", 0, 0, {}]]]
                    },
                    {
                        "class_name": "BatchNormalization",
                        "config": {
                            "name": "block_2_expand_BN",
                            "trainable": true,
                            "dtype": { "class_name": "Policy", "config": { "name": "mixed_float16" } },
                            "axis": [3],
                            "momentum": 0.99,
                            "epsilon": 0.001,
                            "center": true,
                            "scale": true,
                            "beta_initializer": { "class_name": "Zeros", "config": {} },
                            "gamma_initializer": { "class_name": "Ones", "config": {} },
                            "moving_mean_initializer": { "class_name": "Zeros", "config": {} },
                            "moving_variance_initializer": { "class_name": "Ones", "config": {} },
                            "beta_regularizer": null,
                            "gamma_regularizer": null,
                            "beta_constraint": null,
                            "gamma_constraint": null
                        },
                        "name": "block_2_expand_BN",
                        "inbound_nodes": [[["block_2_expand", 0, 0, {}]]]
                    },
                    {
                        "class_name": "ReLU",
                        "config": {
                            "name": "block_2_expand_relu",
                            "trainable": true,
                            "dtype": { "class_name": "Policy", "config": { "name": "mixed_float16" } },
                            "max_value": 6.0,
                            "negative_slope": 0.0,
                            "threshold": 0.0
                        },
                        "name": "block_2_expand_relu",
                        "inbound_nodes": [[["block_2_expand_BN", 0, 0, {}]]]
                    },
                    {
                        "class_name": "DepthwiseConv2D",
                        "config": {
                            "name": "block_2_depthwise",
                            "trainable": true,
                            "dtype": { "class_name": "Policy", "config": { "name": "mixed_float16" } },
                            "kernel_size": [3, 3],
                            "strides": [1, 1],
                            "padding": "same",
                            "data_format": "channels_last",
                            "dilation_rate": [1, 1],
                            "groups": 1,
                            "activation": "linear",
                            "use_bias": false,
                            "bias_initializer": { "class_name": "Zeros", "config": {} },
                            "bias_regularizer": null,
                            "activity_regularizer": null,
                            "bias_constraint": null,
                            "depth_multiplier": 1,
                            "depthwise_initializer": { "class_name": "GlorotUniform", "config": { "seed": null } },
                            "depthwise_regularizer": { "class_name": "L2", "config": { "l2": 0.0005000000237487257 } },
                            "depthwise_constraint": null
                        },
                        "name": "block_2_depthwise",
                        "inbound_nodes": [[["block_2_expand_relu", 0, 0, {}]]]
                    },
                    {
                        "class_name": "BatchNormalization",
                        "config": {
                            "name": "block_2_depthwise_BN",
                            "trainable": true,
                            "dtype": { "class_name": "Policy", "config": { "name": "mixed_float16" } },
                            "axis": [3],
                            "momentum": 0.99,
                            "epsilon": 0.001,
                            "center": true,
                            "scale": true,
                            "beta_initializer": { "class_name": "Zeros", "config": {} },
                            "gamma_initializer": { "class_name": "Ones", "config": {} },
                            "moving_mean_initializer": { "class_name": "Zeros", "config": {} },
                            "moving_variance_initializer": { "class_name": "Ones", "config": {} },
                            "beta_regularizer": null,
                            "gamma_regularizer": null,
                            "beta_constraint": null,
                            "gamma_constraint": null
                        },
                        "name": "block_2_depthwise_BN",
                        "inbound_nodes": [[["block_2_depthwise", 0, 0, {}]]]
                    },
                    {
                        "class_name": "ReLU",
                        "config": {
                            "name": "block_2_depthwise_relu",
                            "trainable": true,
                            "dtype": { "class_name": "Policy", "config": { "name": "mixed_float16" } },
                            "max_value": 6.0,
                            "negative_slope": 0.0,
                            "threshold": 0.0
                        },
                        "name": "block_2_depthwise_relu",
                        "inbound_nodes": [[["block_2_depthwise_BN", 0, 0, {}]]]
                    },
                    {
                        "class_name": "Conv2D",
                        "config": {
                            "name": "block_2_project",
                            "trainable": true,
                            "dtype": { "class_name": "Policy", "config": { "name": "mixed_float16" } },
                            "filters": 24,
                            "kernel_size": [1, 1],
                            "strides": [1, 1],
                            "padding": "same",
                            "data_format": "channels_last",
                            "dilation_rate": [1, 1],
                            "groups": 1,
                            "activation": "linear",
                            "use_bias": false,
                            "kernel_initializer": { "class_name": "GlorotUniform", "config": { "seed": null } },
                            "bias_initializer": { "class_name": "Zeros", "config": {} },
                            "kernel_regularizer": { "class_name": "L2", "config": { "l2": 0.0005000000237487257 } },
                            "bias_regularizer": null,
                            "activity_regularizer": null,
                            "kernel_constraint": null,
                            "bias_constraint": null
                        },
                        "name": "block_2_project",
                        "inbound_nodes": [[["block_2_depthwise_relu", 0, 0, {}]]]
                    },
                    {
                        "class_name": "BatchNormalization",
                        "config": {
                            "name": "block_2_project_BN",
                            "trainable": true,
                            "dtype": { "class_name": "Policy", "config": { "name": "mixed_float16" } },
                            "axis": [3],
                            "momentum": 0.99,
                            "epsilon": 0.001,
                            "center": true,
                            "scale": true,
                            "beta_initializer": { "class_name": "Zeros", "config": {} },
                            "gamma_initializer": { "class_name": "Ones", "config": {} },
                            "moving_mean_initializer": { "class_name": "Zeros", "config": {} },
                            "moving_variance_initializer": { "class_name": "Ones", "config": {} },
                            "beta_regularizer": null,
                            "gamma_regularizer": null,
                            "beta_constraint": null,
                            "gamma_constraint": null
                        },
                        "name": "block_2_project_BN",
                        "inbound_nodes": [[["block_2_project", 0, 0, {}]]]
                    },
                    {
                        "class_name": "Add",
                        "config": {
                            "name": "block_2_add",
                            "trainable": true,
                            "dtype": { "class_name": "Policy", "config": { "name": "mixed_float16" } }
                        },
                        "name": "block_2_add",
                        "inbound_nodes": [
                            [
                                ["block_1_project_BN", 0, 0, {}],
                                ["block_2_project_BN", 0, 0, {}]
                            ]
                        ]
                    },
                    {
                        "class_name": "Conv2D",
                        "config": {
                            "name": "block_3_expand",
                            "trainable": true,
                            "dtype": { "class_name": "Policy", "config": { "name": "mixed_float16" } },
                            "filters": 144,
                            "kernel_size": [1, 1],
                            "strides": [1, 1],
                            "padding": "same",
                            "data_format": "channels_last",
                            "dilation_rate": [1, 1],
                            "groups": 1,
                            "activation": "linear",
                            "use_bias": false,
                            "kernel_initializer": { "class_name": "GlorotUniform", "config": { "seed": null } },
                            "bias_initializer": { "class_name": "Zeros", "config": {} },
                            "kernel_regularizer": { "class_name": "L2", "config": { "l2": 0.0005000000237487257 } },
                            "bias_regularizer": null,
                            "activity_regularizer": null,
                            "kernel_constraint": null,
                            "bias_constraint": null
                        },
                        "name": "block_3_expand",
                        "inbound_nodes": [[["block_2_add", 0, 0, {}]]]
                    },
                    {
                        "class_name": "BatchNormalization",
                        "config": {
                            "name": "block_3_expand_BN",
                            "trainable": true,
                            "dtype": { "class_name": "Policy", "config": { "name": "mixed_float16" } },
                            "axis": [3],
                            "momentum": 0.99,
                            "epsilon": 0.001,
                            "center": true,
                            "scale": true,
                            "beta_initializer": { "class_name": "Zeros", "config": {} },
                            "gamma_initializer": { "class_name": "Ones", "config": {} },
                            "moving_mean_initializer": { "class_name": "Zeros", "config": {} },
                            "moving_variance_initializer": { "class_name": "Ones", "config": {} },
                            "beta_regularizer": null,
                            "gamma_regularizer": null,
                            "beta_constraint": null,
                            "gamma_constraint": null
                        },
                        "name": "block_3_expand_BN",
                        "inbound_nodes": [[["block_3_expand", 0, 0, {}]]]
                    },
                    {
                        "class_name": "ReLU",
                        "config": {
                            "name": "block_3_expand_relu",
                            "trainable": true,
                            "dtype": { "class_name": "Policy", "config": { "name": "mixed_float16" } },
                            "max_value": 6.0,
                            "negative_slope": 0.0,
                            "threshold": 0.0
                        },
                        "name": "block_3_expand_relu",
                        "inbound_nodes": [[["block_3_expand_BN", 0, 0, {}]]]
                    },
                    {
                        "class_name": "ZeroPadding2D",
                        "config": {
                            "name": "block_3_pad",
                            "trainable": true,
                            "dtype": { "class_name": "Policy", "config": { "name": "mixed_float16" } },
                            "padding": [
                                [0, 1],
                                [0, 1]
                            ],
                            "data_format": "channels_last"
                        },
                        "name": "block_3_pad",
                        "inbound_nodes": [[["block_3_expand_relu", 0, 0, {}]]]
                    },
                    {
                        "class_name": "DepthwiseConv2D",
                        "config": {
                            "name": "block_3_depthwise",
                            "trainable": true,
                            "dtype": { "class_name": "Policy", "config": { "name": "mixed_float16" } },
                            "kernel_size": [3, 3],
                            "strides": [2, 2],
                            "padding": "valid",
                            "data_format": "channels_last",
                            "dilation_rate": [1, 1],
                            "groups": 1,
                            "activation": "linear",
                            "use_bias": false,
                            "bias_initializer": { "class_name": "Zeros", "config": {} },
                            "bias_regularizer": null,
                            "activity_regularizer": null,
                            "bias_constraint": null,
                            "depth_multiplier": 1,
                            "depthwise_initializer": { "class_name": "GlorotUniform", "config": { "seed": null } },
                            "depthwise_regularizer": { "class_name": "L2", "config": { "l2": 0.0005000000237487257 } },
                            "depthwise_constraint": null
                        },
                        "name": "block_3_depthwise",
                        "inbound_nodes": [[["block_3_pad", 0, 0, {}]]]
                    },
                    {
                        "class_name": "BatchNormalization",
                        "config": {
                            "name": "block_3_depthwise_BN",
                            "trainable": true,
                            "dtype": { "class_name": "Policy", "config": { "name": "mixed_float16" } },
                            "axis": [3],
                            "momentum": 0.99,
                            "epsilon": 0.001,
                            "center": true,
                            "scale": true,
                            "beta_initializer": { "class_name": "Zeros", "config": {} },
                            "gamma_initializer": { "class_name": "Ones", "config": {} },
                            "moving_mean_initializer": { "class_name": "Zeros", "config": {} },
                            "moving_variance_initializer": { "class_name": "Ones", "config": {} },
                            "beta_regularizer": null,
                            "gamma_regularizer": null,
                            "beta_constraint": null,
                            "gamma_constraint": null
                        },
                        "name": "block_3_depthwise_BN",
                        "inbound_nodes": [[["block_3_depthwise", 0, 0, {}]]]
                    },
                    {
                        "class_name": "ReLU",
                        "config": {
                            "name": "block_3_depthwise_relu",
                            "trainable": true,
                            "dtype": { "class_name": "Policy", "config": { "name": "mixed_float16" } },
                            "max_value": 6.0,
                            "negative_slope": 0.0,
                            "threshold": 0.0
                        },
                        "name": "block_3_depthwise_relu",
                        "inbound_nodes": [[["block_3_depthwise_BN", 0, 0, {}]]]
                    },
                    {
                        "class_name": "Conv2D",
                        "config": {
                            "name": "block_3_project",
                            "trainable": true,
                            "dtype": { "class_name": "Policy", "config": { "name": "mixed_float16" } },
                            "filters": 32,
                            "kernel_size": [1, 1],
                            "strides": [1, 1],
                            "padding": "same",
                            "data_format": "channels_last",
                            "dilation_rate": [1, 1],
                            "groups": 1,
                            "activation": "linear",
                            "use_bias": false,
                            "kernel_initializer": { "class_name": "GlorotUniform", "config": { "seed": null } },
                            "bias_initializer": { "class_name": "Zeros", "config": {} },
                            "kernel_regularizer": { "class_name": "L2", "config": { "l2": 0.0005000000237487257 } },
                            "bias_regularizer": null,
                            "activity_regularizer": null,
                            "kernel_constraint": null,
                            "bias_constraint": null
                        },
                        "name": "block_3_project",
                        "inbound_nodes": [[["block_3_depthwise_relu", 0, 0, {}]]]
                    },
                    {
                        "class_name": "BatchNormalization",
                        "config": {
                            "name": "block_3_project_BN",
                            "trainable": true,
                            "dtype": { "class_name": "Policy", "config": { "name": "mixed_float16" } },
                            "axis": [3],
                            "momentum": 0.99,
                            "epsilon": 0.001,
                            "center": true,
                            "scale": true,
                            "beta_initializer": { "class_name": "Zeros", "config": {} },
                            "gamma_initializer": { "class_name": "Ones", "config": {} },
                            "moving_mean_initializer": { "class_name": "Zeros", "config": {} },
                            "moving_variance_initializer": { "class_name": "Ones", "config": {} },
                            "beta_regularizer": null,
                            "gamma_regularizer": null,
                            "beta_constraint": null,
                            "gamma_constraint": null
                        },
                        "name": "block_3_project_BN",
                        "inbound_nodes": [[["block_3_project", 0, 0, {}]]]
                    },
                    {
                        "class_name": "Conv2D",
                        "config": {
                            "name": "block_4_expand",
                            "trainable": true,
                            "dtype": { "class_name": "Policy", "config": { "name": "mixed_float16" } },
                            "filters": 192,
                            "kernel_size": [1, 1],
                            "strides": [1, 1],
                            "padding": "same",
                            "data_format": "channels_last",
                            "dilation_rate": [1, 1],
                            "groups": 1,
                            "activation": "linear",
                            "use_bias": false,
                            "kernel_initializer": { "class_name": "GlorotUniform", "config": { "seed": null } },
                            "bias_initializer": { "class_name": "Zeros", "config": {} },
                            "kernel_regularizer": { "class_name": "L2", "config": { "l2": 0.0005000000237487257 } },
                            "bias_regularizer": null,
                            "activity_regularizer": null,
                            "kernel_constraint": null,
                            "bias_constraint": null
                        },
                        "name": "block_4_expand",
                        "inbound_nodes": [[["block_3_project_BN", 0, 0, {}]]]
                    },
                    {
                        "class_name": "BatchNormalization",
                        "config": {
                            "name": "block_4_expand_BN",
                            "trainable": true,
                            "dtype": { "class_name": "Policy", "config": { "name": "mixed_float16" } },
                            "axis": [3],
                            "momentum": 0.99,
                            "epsilon": 0.001,
                            "center": true,
                            "scale": true,
                            "beta_initializer": { "class_name": "Zeros", "config": {} },
                            "gamma_initializer": { "class_name": "Ones", "config": {} },
                            "moving_mean_initializer": { "class_name": "Zeros", "config": {} },
                            "moving_variance_initializer": { "class_name": "Ones", "config": {} },
                            "beta_regularizer": null,
                            "gamma_regularizer": null,
                            "beta_constraint": null,
                            "gamma_constraint": null
                        },
                        "name": "block_4_expand_BN",
                        "inbound_nodes": [[["block_4_expand", 0, 0, {}]]]
                    },
                    {
                        "class_name": "ReLU",
                        "config": {
                            "name": "block_4_expand_relu",
                            "trainable": true,
                            "dtype": { "class_name": "Policy", "config": { "name": "mixed_float16" } },
                            "max_value": 6.0,
                            "negative_slope": 0.0,
                            "threshold": 0.0
                        },
                        "name": "block_4_expand_relu",
                        "inbound_nodes": [[["block_4_expand_BN", 0, 0, {}]]]
                    },
                    {
                        "class_name": "DepthwiseConv2D",
                        "config": {
                            "name": "block_4_depthwise",
                            "trainable": true,
                            "dtype": { "class_name": "Policy", "config": { "name": "mixed_float16" } },
                            "kernel_size": [3, 3],
                            "strides": [1, 1],
                            "padding": "same",
                            "data_format": "channels_last",
                            "dilation_rate": [1, 1],
                            "groups": 1,
                            "activation": "linear",
                            "use_bias": false,
                            "bias_initializer": { "class_name": "Zeros", "config": {} },
                            "bias_regularizer": null,
                            "activity_regularizer": null,
                            "bias_constraint": null,
                            "depth_multiplier": 1,
                            "depthwise_initializer": { "class_name": "GlorotUniform", "config": { "seed": null } },
                            "depthwise_regularizer": { "class_name": "L2", "config": { "l2": 0.0005000000237487257 } },
                            "depthwise_constraint": null
                        },
                        "name": "block_4_depthwise",
                        "inbound_nodes": [[["block_4_expand_relu", 0, 0, {}]]]
                    },
                    {
                        "class_name": "BatchNormalization",
                        "config": {
                            "name": "block_4_depthwise_BN",
                            "trainable": true,
                            "dtype": { "class_name": "Policy", "config": { "name": "mixed_float16" } },
                            "axis": [3],
                            "momentum": 0.99,
                            "epsilon": 0.001,
                            "center": true,
                            "scale": true,
                            "beta_initializer": { "class_name": "Zeros", "config": {} },
                            "gamma_initializer": { "class_name": "Ones", "config": {} },
                            "moving_mean_initializer": { "class_name": "Zeros", "config": {} },
                            "moving_variance_initializer": { "class_name": "Ones", "config": {} },
                            "beta_regularizer": null,
                            "gamma_regularizer": null,
                            "beta_constraint": null,
                            "gamma_constraint": null
                        },
                        "name": "block_4_depthwise_BN",
                        "inbound_nodes": [[["block_4_depthwise", 0, 0, {}]]]
                    },
                    {
                        "class_name": "ReLU",
                        "config": {
                            "name": "block_4_depthwise_relu",
                            "trainable": true,
                            "dtype": { "class_name": "Policy", "config": { "name": "mixed_float16" } },
                            "max_value": 6.0,
                            "negative_slope": 0.0,
                            "threshold": 0.0
                        },
                        "name": "block_4_depthwise_relu",
                        "inbound_nodes": [[["block_4_depthwise_BN", 0, 0, {}]]]
                    },
                    {
                        "class_name": "Conv2D",
                        "config": {
                            "name": "block_4_project",
                            "trainable": true,
                            "dtype": { "class_name": "Policy", "config": { "name": "mixed_float16" } },
                            "filters": 32,
                            "kernel_size": [1, 1],
                            "strides": [1, 1],
                            "padding": "same",
                            "data_format": "channels_last",
                            "dilation_rate": [1, 1],
                            "groups": 1,
                            "activation": "linear",
                            "use_bias": false,
                            "kernel_initializer": { "class_name": "GlorotUniform", "config": { "seed": null } },
                            "bias_initializer": { "class_name": "Zeros", "config": {} },
                            "kernel_regularizer": { "class_name": "L2", "config": { "l2": 0.0005000000237487257 } },
                            "bias_regularizer": null,
                            "activity_regularizer": null,
                            "kernel_constraint": null,
                            "bias_constraint": null
                        },
                        "name": "block_4_project",
                        "inbound_nodes": [[["block_4_depthwise_relu", 0, 0, {}]]]
                    },
                    {
                        "class_name": "BatchNormalization",
                        "config": {
                            "name": "block_4_project_BN",
                            "trainable": true,
                            "dtype": { "class_name": "Policy", "config": { "name": "mixed_float16" } },
                            "axis": [3],
                            "momentum": 0.99,
                            "epsilon": 0.001,
                            "center": true,
                            "scale": true,
                            "beta_initializer": { "class_name": "Zeros", "config": {} },
                            "gamma_initializer": { "class_name": "Ones", "config": {} },
                            "moving_mean_initializer": { "class_name": "Zeros", "config": {} },
                            "moving_variance_initializer": { "class_name": "Ones", "config": {} },
                            "beta_regularizer": null,
                            "gamma_regularizer": null,
                            "beta_constraint": null,
                            "gamma_constraint": null
                        },
                        "name": "block_4_project_BN",
                        "inbound_nodes": [[["block_4_project", 0, 0, {}]]]
                    },
                    {
                        "class_name": "Add",
                        "config": {
                            "name": "block_4_add",
                            "trainable": true,
                            "dtype": { "class_name": "Policy", "config": { "name": "mixed_float16" } }
                        },
                        "name": "block_4_add",
                        "inbound_nodes": [
                            [
                                ["block_3_project_BN", 0, 0, {}],
                                ["block_4_project_BN", 0, 0, {}]
                            ]
                        ]
                    },
                    {
                        "class_name": "Conv2D",
                        "config": {
                            "name": "block_5_expand",
                            "trainable": true,
                            "dtype": { "class_name": "Policy", "config": { "name": "mixed_float16" } },
                            "filters": 192,
                            "kernel_size": [1, 1],
                            "strides": [1, 1],
                            "padding": "same",
                            "data_format": "channels_last",
                            "dilation_rate": [1, 1],
                            "groups": 1,
                            "activation": "linear",
                            "use_bias": false,
                            "kernel_initializer": { "class_name": "GlorotUniform", "config": { "seed": null } },
                            "bias_initializer": { "class_name": "Zeros", "config": {} },
                            "kernel_regularizer": { "class_name": "L2", "config": { "l2": 0.0005000000237487257 } },
                            "bias_regularizer": null,
                            "activity_regularizer": null,
                            "kernel_constraint": null,
                            "bias_constraint": null
                        },
                        "name": "block_5_expand",
                        "inbound_nodes": [[["block_4_add", 0, 0, {}]]]
                    },
                    {
                        "class_name": "BatchNormalization",
                        "config": {
                            "name": "block_5_expand_BN",
                            "trainable": true,
                            "dtype": { "class_name": "Policy", "config": { "name": "mixed_float16" } },
                            "axis": [3],
                            "momentum": 0.99,
                            "epsilon": 0.001,
                            "center": true,
                            "scale": true,
                            "beta_initializer": { "class_name": "Zeros", "config": {} },
                            "gamma_initializer": { "class_name": "Ones", "config": {} },
                            "moving_mean_initializer": { "class_name": "Zeros", "config": {} },
                            "moving_variance_initializer": { "class_name": "Ones", "config": {} },
                            "beta_regularizer": null,
                            "gamma_regularizer": null,
                            "beta_constraint": null,
                            "gamma_constraint": null
                        },
                        "name": "block_5_expand_BN",
                        "inbound_nodes": [[["block_5_expand", 0, 0, {}]]]
                    },
                    {
                        "class_name": "ReLU",
                        "config": {
                            "name": "block_5_expand_relu",
                            "trainable": true,
                            "dtype": { "class_name": "Policy", "config": { "name": "mixed_float16" } },
                            "max_value": 6.0,
                            "negative_slope": 0.0,
                            "threshold": 0.0
                        },
                        "name": "block_5_expand_relu",
                        "inbound_nodes": [[["block_5_expand_BN", 0, 0, {}]]]
                    },
                    {
                        "class_name": "DepthwiseConv2D",
                        "config": {
                            "name": "block_5_depthwise",
                            "trainable": true,
                            "dtype": { "class_name": "Policy", "config": { "name": "mixed_float16" } },
                            "kernel_size": [3, 3],
                            "strides": [1, 1],
                            "padding": "same",
                            "data_format": "channels_last",
                            "dilation_rate": [1, 1],
                            "groups": 1,
                            "activation": "linear",
                            "use_bias": false,
                            "bias_initializer": { "class_name": "Zeros", "config": {} },
                            "bias_regularizer": null,
                            "activity_regularizer": null,
                            "bias_constraint": null,
                            "depth_multiplier": 1,
                            "depthwise_initializer": { "class_name": "GlorotUniform", "config": { "seed": null } },
                            "depthwise_regularizer": { "class_name": "L2", "config": { "l2": 0.0005000000237487257 } },
                            "depthwise_constraint": null
                        },
                        "name": "block_5_depthwise",
                        "inbound_nodes": [[["block_5_expand_relu", 0, 0, {}]]]
                    },
                    {
                        "class_name": "BatchNormalization",
                        "config": {
                            "name": "block_5_depthwise_BN",
                            "trainable": true,
                            "dtype": { "class_name": "Policy", "config": { "name": "mixed_float16" } },
                            "axis": [3],
                            "momentum": 0.99,
                            "epsilon": 0.001,
                            "center": true,
                            "scale": true,
                            "beta_initializer": { "class_name": "Zeros", "config": {} },
                            "gamma_initializer": { "class_name": "Ones", "config": {} },
                            "moving_mean_initializer": { "class_name": "Zeros", "config": {} },
                            "moving_variance_initializer": { "class_name": "Ones", "config": {} },
                            "beta_regularizer": null,
                            "gamma_regularizer": null,
                            "beta_constraint": null,
                            "gamma_constraint": null
                        },
                        "name": "block_5_depthwise_BN",
                        "inbound_nodes": [[["block_5_depthwise", 0, 0, {}]]]
                    },
                    {
                        "class_name": "ReLU",
                        "config": {
                            "name": "block_5_depthwise_relu",
                            "trainable": true,
                            "dtype": { "class_name": "Policy", "config": { "name": "mixed_float16" } },
                            "max_value": 6.0,
                            "negative_slope": 0.0,
                            "threshold": 0.0
                        },
                        "name": "block_5_depthwise_relu",
                        "inbound_nodes": [[["block_5_depthwise_BN", 0, 0, {}]]]
                    },
                    {
                        "class_name": "Conv2D",
                        "config": {
                            "name": "block_5_project",
                            "trainable": true,
                            "dtype": { "class_name": "Policy", "config": { "name": "mixed_float16" } },
                            "filters": 32,
                            "kernel_size": [1, 1],
                            "strides": [1, 1],
                            "padding": "same",
                            "data_format": "channels_last",
                            "dilation_rate": [1, 1],
                            "groups": 1,
                            "activation": "linear",
                            "use_bias": false,
                            "kernel_initializer": { "class_name": "GlorotUniform", "config": { "seed": null } },
                            "bias_initializer": { "class_name": "Zeros", "config": {} },
                            "kernel_regularizer": { "class_name": "L2", "config": { "l2": 0.0005000000237487257 } },
                            "bias_regularizer": null,
                            "activity_regularizer": null,
                            "kernel_constraint": null,
                            "bias_constraint": null
                        },
                        "name": "block_5_project",
                        "inbound_nodes": [[["block_5_depthwise_relu", 0, 0, {}]]]
                    },
                    {
                        "class_name": "BatchNormalization",
                        "config": {
                            "name": "block_5_project_BN",
                            "trainable": true,
                            "dtype": { "class_name": "Policy", "config": { "name": "mixed_float16" } },
                            "axis": [3],
                            "momentum": 0.99,
                            "epsilon": 0.001,
                            "center": true,
                            "scale": true,
                            "beta_initializer": { "class_name": "Zeros", "config": {} },
                            "gamma_initializer": { "class_name": "Ones", "config": {} },
                            "moving_mean_initializer": { "class_name": "Zeros", "config": {} },
                            "moving_variance_initializer": { "class_name": "Ones", "config": {} },
                            "beta_regularizer": null,
                            "gamma_regularizer": null,
                            "beta_constraint": null,
                            "gamma_constraint": null
                        },
                        "name": "block_5_project_BN",
                        "inbound_nodes": [[["block_5_project", 0, 0, {}]]]
                    },
                    {
                        "class_name": "Add",
                        "config": {
                            "name": "block_5_add",
                            "trainable": true,
                            "dtype": { "class_name": "Policy", "config": { "name": "mixed_float16" } }
                        },
                        "name": "block_5_add",
                        "inbound_nodes": [
                            [
                                ["block_4_add", 0, 0, {}],
                                ["block_5_project_BN", 0, 0, {}]
                            ]
                        ]
                    },
                    {
                        "class_name": "Conv2D",
                        "config": {
                            "name": "block_6_expand",
                            "trainable": true,
                            "dtype": { "class_name": "Policy", "config": { "name": "mixed_float16" } },
                            "filters": 192,
                            "kernel_size": [1, 1],
                            "strides": [1, 1],
                            "padding": "same",
                            "data_format": "channels_last",
                            "dilation_rate": [1, 1],
                            "groups": 1,
                            "activation": "linear",
                            "use_bias": false,
                            "kernel_initializer": { "class_name": "GlorotUniform", "config": { "seed": null } },
                            "bias_initializer": { "class_name": "Zeros", "config": {} },
                            "kernel_regularizer": { "class_name": "L2", "config": { "l2": 0.0005000000237487257 } },
                            "bias_regularizer": null,
                            "activity_regularizer": null,
                            "kernel_constraint": null,
                            "bias_constraint": null
                        },
                        "name": "block_6_expand",
                        "inbound_nodes": [[["block_5_add", 0, 0, {}]]]
                    },
                    {
                        "class_name": "BatchNormalization",
                        "config": {
                            "name": "block_6_expand_BN",
                            "trainable": true,
                            "dtype": { "class_name": "Policy", "config": { "name": "mixed_float16" } },
                            "axis": [3],
                            "momentum": 0.99,
                            "epsilon": 0.001,
                            "center": true,
                            "scale": true,
                            "beta_initializer": { "class_name": "Zeros", "config": {} },
                            "gamma_initializer": { "class_name": "Ones", "config": {} },
                            "moving_mean_initializer": { "class_name": "Zeros", "config": {} },
                            "moving_variance_initializer": { "class_name": "Ones", "config": {} },
                            "beta_regularizer": null,
                            "gamma_regularizer": null,
                            "beta_constraint": null,
                            "gamma_constraint": null
                        },
                        "name": "block_6_expand_BN",
                        "inbound_nodes": [[["block_6_expand", 0, 0, {}]]]
                    },
                    {
                        "class_name": "ReLU",
                        "config": {
                            "name": "block_6_expand_relu",
                            "trainable": true,
                            "dtype": { "class_name": "Policy", "config": { "name": "mixed_float16" } },
                            "max_value": 6.0,
                            "negative_slope": 0.0,
                            "threshold": 0.0
                        },
                        "name": "block_6_expand_relu",
                        "inbound_nodes": [[["block_6_expand_BN", 0, 0, {}]]]
                    },
                    {
                        "class_name": "ZeroPadding2D",
                        "config": {
                            "name": "block_6_pad",
                            "trainable": true,
                            "dtype": { "class_name": "Policy", "config": { "name": "mixed_float16" } },
                            "padding": [
                                [0, 1],
                                [0, 1]
                            ],
                            "data_format": "channels_last"
                        },
                        "name": "block_6_pad",
                        "inbound_nodes": [[["block_6_expand_relu", 0, 0, {}]]]
                    },
                    {
                        "class_name": "DepthwiseConv2D",
                        "config": {
                            "name": "block_6_depthwise",
                            "trainable": true,
                            "dtype": { "class_name": "Policy", "config": { "name": "mixed_float16" } },
                            "kernel_size": [3, 3],
                            "strides": [2, 2],
                            "padding": "valid",
                            "data_format": "channels_last",
                            "dilation_rate": [1, 1],
                            "groups": 1,
                            "activation": "linear",
                            "use_bias": false,
                            "bias_initializer": { "class_name": "Zeros", "config": {} },
                            "bias_regularizer": null,
                            "activity_regularizer": null,
                            "bias_constraint": null,
                            "depth_multiplier": 1,
                            "depthwise_initializer": { "class_name": "GlorotUniform", "config": { "seed": null } },
                            "depthwise_regularizer": { "class_name": "L2", "config": { "l2": 0.0005000000237487257 } },
                            "depthwise_constraint": null
                        },
                        "name": "block_6_depthwise",
                        "inbound_nodes": [[["block_6_pad", 0, 0, {}]]]
                    },
                    {
                        "class_name": "BatchNormalization",
                        "config": {
                            "name": "block_6_depthwise_BN",
                            "trainable": true,
                            "dtype": { "class_name": "Policy", "config": { "name": "mixed_float16" } },
                            "axis": [3],
                            "momentum": 0.99,
                            "epsilon": 0.001,
                            "center": true,
                            "scale": true,
                            "beta_initializer": { "class_name": "Zeros", "config": {} },
                            "gamma_initializer": { "class_name": "Ones", "config": {} },
                            "moving_mean_initializer": { "class_name": "Zeros", "config": {} },
                            "moving_variance_initializer": { "class_name": "Ones", "config": {} },
                            "beta_regularizer": null,
                            "gamma_regularizer": null,
                            "beta_constraint": null,
                            "gamma_constraint": null
                        },
                        "name": "block_6_depthwise_BN",
                        "inbound_nodes": [[["block_6_depthwise", 0, 0, {}]]]
                    },
                    {
                        "class_name": "ReLU",
                        "config": {
                            "name": "block_6_depthwise_relu",
                            "trainable": true,
                            "dtype": { "class_name": "Policy", "config": { "name": "mixed_float16" } },
                            "max_value": 6.0,
                            "negative_slope": 0.0,
                            "threshold": 0.0
                        },
                        "name": "block_6_depthwise_relu",
                        "inbound_nodes": [[["block_6_depthwise_BN", 0, 0, {}]]]
                    },
                    {
                        "class_name": "Conv2D",
                        "config": {
                            "name": "block_6_project",
                            "trainable": true,
                            "dtype": { "class_name": "Policy", "config": { "name": "mixed_float16" } },
                            "filters": 64,
                            "kernel_size": [1, 1],
                            "strides": [1, 1],
                            "padding": "same",
                            "data_format": "channels_last",
                            "dilation_rate": [1, 1],
                            "groups": 1,
                            "activation": "linear",
                            "use_bias": false,
                            "kernel_initializer": { "class_name": "GlorotUniform", "config": { "seed": null } },
                            "bias_initializer": { "class_name": "Zeros", "config": {} },
                            "kernel_regularizer": { "class_name": "L2", "config": { "l2": 0.0005000000237487257 } },
                            "bias_regularizer": null,
                            "activity_regularizer": null,
                            "kernel_constraint": null,
                            "bias_constraint": null
                        },
                        "name": "block_6_project",
                        "inbound_nodes": [[["block_6_depthwise_relu", 0, 0, {}]]]
                    },
                    {
                        "class_name": "BatchNormalization",
                        "config": {
                            "name": "block_6_project_BN",
                            "trainable": true,
                            "dtype": { "class_name": "Policy", "config": { "name": "mixed_float16" } },
                            "axis": [3],
                            "momentum": 0.99,
                            "epsilon": 0.001,
                            "center": true,
                            "scale": true,
                            "beta_initializer": { "class_name": "Zeros", "config": {} },
                            "gamma_initializer": { "class_name": "Ones", "config": {} },
                            "moving_mean_initializer": { "class_name": "Zeros", "config": {} },
                            "moving_variance_initializer": { "class_name": "Ones", "config": {} },
                            "beta_regularizer": null,
                            "gamma_regularizer": null,
                            "beta_constraint": null,
                            "gamma_constraint": null
                        },
                        "name": "block_6_project_BN",
                        "inbound_nodes": [[["block_6_project", 0, 0, {}]]]
                    },
                    {
                        "class_name": "Conv2D",
                        "config": {
                            "name": "block_7_expand",
                            "trainable": true,
                            "dtype": { "class_name": "Policy", "config": { "name": "mixed_float16" } },
                            "filters": 384,
                            "kernel_size": [1, 1],
                            "strides": [1, 1],
                            "padding": "same",
                            "data_format": "channels_last",
                            "dilation_rate": [1, 1],
                            "groups": 1,
                            "activation": "linear",
                            "use_bias": false,
                            "kernel_initializer": { "class_name": "GlorotUniform", "config": { "seed": null } },
                            "bias_initializer": { "class_name": "Zeros", "config": {} },
                            "kernel_regularizer": { "class_name": "L2", "config": { "l2": 0.0005000000237487257 } },
                            "bias_regularizer": null,
                            "activity_regularizer": null,
                            "kernel_constraint": null,
                            "bias_constraint": null
                        },
                        "name": "block_7_expand",
                        "inbound_nodes": [[["block_6_project_BN", 0, 0, {}]]]
                    },
                    {
                        "class_name": "BatchNormalization",
                        "config": {
                            "name": "block_7_expand_BN",
                            "trainable": true,
                            "dtype": { "class_name": "Policy", "config": { "name": "mixed_float16" } },
                            "axis": [3],
                            "momentum": 0.99,
                            "epsilon": 0.001,
                            "center": true,
                            "scale": true,
                            "beta_initializer": { "class_name": "Zeros", "config": {} },
                            "gamma_initializer": { "class_name": "Ones", "config": {} },
                            "moving_mean_initializer": { "class_name": "Zeros", "config": {} },
                            "moving_variance_initializer": { "class_name": "Ones", "config": {} },
                            "beta_regularizer": null,
                            "gamma_regularizer": null,
                            "beta_constraint": null,
                            "gamma_constraint": null
                        },
                        "name": "block_7_expand_BN",
                        "inbound_nodes": [[["block_7_expand", 0, 0, {}]]]
                    },
                    {
                        "class_name": "ReLU",
                        "config": {
                            "name": "block_7_expand_relu",
                            "trainable": true,
                            "dtype": { "class_name": "Policy", "config": { "name": "mixed_float16" } },
                            "max_value": 6.0,
                            "negative_slope": 0.0,
                            "threshold": 0.0
                        },
                        "name": "block_7_expand_relu",
                        "inbound_nodes": [[["block_7_expand_BN", 0, 0, {}]]]
                    },
                    {
                        "class_name": "DepthwiseConv2D",
                        "config": {
                            "name": "block_7_depthwise",
                            "trainable": true,
                            "dtype": { "class_name": "Policy", "config": { "name": "mixed_float16" } },
                            "kernel_size": [3, 3],
                            "strides": [1, 1],
                            "padding": "same",
                            "data_format": "channels_last",
                            "dilation_rate": [1, 1],
                            "groups": 1,
                            "activation": "linear",
                            "use_bias": false,
                            "bias_initializer": { "class_name": "Zeros", "config": {} },
                            "bias_regularizer": null,
                            "activity_regularizer": null,
                            "bias_constraint": null,
                            "depth_multiplier": 1,
                            "depthwise_initializer": { "class_name": "GlorotUniform", "config": { "seed": null } },
                            "depthwise_regularizer": { "class_name": "L2", "config": { "l2": 0.0005000000237487257 } },
                            "depthwise_constraint": null
                        },
                        "name": "block_7_depthwise",
                        "inbound_nodes": [[["block_7_expand_relu", 0, 0, {}]]]
                    },
                    {
                        "class_name": "BatchNormalization",
                        "config": {
                            "name": "block_7_depthwise_BN",
                            "trainable": true,
                            "dtype": { "class_name": "Policy", "config": { "name": "mixed_float16" } },
                            "axis": [3],
                            "momentum": 0.99,
                            "epsilon": 0.001,
                            "center": true,
                            "scale": true,
                            "beta_initializer": { "class_name": "Zeros", "config": {} },
                            "gamma_initializer": { "class_name": "Ones", "config": {} },
                            "moving_mean_initializer": { "class_name": "Zeros", "config": {} },
                            "moving_variance_initializer": { "class_name": "Ones", "config": {} },
                            "beta_regularizer": null,
                            "gamma_regularizer": null,
                            "beta_constraint": null,
                            "gamma_constraint": null
                        },
                        "name": "block_7_depthwise_BN",
                        "inbound_nodes": [[["block_7_depthwise", 0, 0, {}]]]
                    },
                    {
                        "class_name": "ReLU",
                        "config": {
                            "name": "block_7_depthwise_relu",
                            "trainable": true,
                            "dtype": { "class_name": "Policy", "config": { "name": "mixed_float16" } },
                            "max_value": 6.0,
                            "negative_slope": 0.0,
                            "threshold": 0.0
                        },
                        "name": "block_7_depthwise_relu",
                        "inbound_nodes": [[["block_7_depthwise_BN", 0, 0, {}]]]
                    },
                    {
                        "class_name": "Conv2D",
                        "config": {
                            "name": "block_7_project",
                            "trainable": true,
                            "dtype": { "class_name": "Policy", "config": { "name": "mixed_float16" } },
                            "filters": 64,
                            "kernel_size": [1, 1],
                            "strides": [1, 1],
                            "padding": "same",
                            "data_format": "channels_last",
                            "dilation_rate": [1, 1],
                            "groups": 1,
                            "activation": "linear",
                            "use_bias": false,
                            "kernel_initializer": { "class_name": "GlorotUniform", "config": { "seed": null } },
                            "bias_initializer": { "class_name": "Zeros", "config": {} },
                            "kernel_regularizer": { "class_name": "L2", "config": { "l2": 0.0005000000237487257 } },
                            "bias_regularizer": null,
                            "activity_regularizer": null,
                            "kernel_constraint": null,
                            "bias_constraint": null
                        },
                        "name": "block_7_project",
                        "inbound_nodes": [[["block_7_depthwise_relu", 0, 0, {}]]]
                    },
                    {
                        "class_name": "BatchNormalization",
                        "config": {
                            "name": "block_7_project_BN",
                            "trainable": true,
                            "dtype": { "class_name": "Policy", "config": { "name": "mixed_float16" } },
                            "axis": [3],
                            "momentum": 0.99,
                            "epsilon": 0.001,
                            "center": true,
                            "scale": true,
                            "beta_initializer": { "class_name": "Zeros", "config": {} },
                            "gamma_initializer": { "class_name": "Ones", "config": {} },
                            "moving_mean_initializer": { "class_name": "Zeros", "config": {} },
                            "moving_variance_initializer": { "class_name": "Ones", "config": {} },
                            "beta_regularizer": null,
                            "gamma_regularizer": null,
                            "beta_constraint": null,
                            "gamma_constraint": null
                        },
                        "name": "block_7_project_BN",
                        "inbound_nodes": [[["block_7_project", 0, 0, {}]]]
                    },
                    {
                        "class_name": "Add",
                        "config": {
                            "name": "block_7_add",
                            "trainable": true,
                            "dtype": { "class_name": "Policy", "config": { "name": "mixed_float16" } }
                        },
                        "name": "block_7_add",
                        "inbound_nodes": [
                            [
                                ["block_6_project_BN", 0, 0, {}],
                                ["block_7_project_BN", 0, 0, {}]
                            ]
                        ]
                    },
                    {
                        "class_name": "Conv2D",
                        "config": {
                            "name": "block_8_expand",
                            "trainable": true,
                            "dtype": { "class_name": "Policy", "config": { "name": "mixed_float16" } },
                            "filters": 384,
                            "kernel_size": [1, 1],
                            "strides": [1, 1],
                            "padding": "same",
                            "data_format": "channels_last",
                            "dilation_rate": [1, 1],
                            "groups": 1,
                            "activation": "linear",
                            "use_bias": false,
                            "kernel_initializer": { "class_name": "GlorotUniform", "config": { "seed": null } },
                            "bias_initializer": { "class_name": "Zeros", "config": {} },
                            "kernel_regularizer": { "class_name": "L2", "config": { "l2": 0.0005000000237487257 } },
                            "bias_regularizer": null,
                            "activity_regularizer": null,
                            "kernel_constraint": null,
                            "bias_constraint": null
                        },
                        "name": "block_8_expand",
                        "inbound_nodes": [[["block_7_add", 0, 0, {}]]]
                    },
                    {
                        "class_name": "BatchNormalization",
                        "config": {
                            "name": "block_8_expand_BN",
                            "trainable": true,
                            "dtype": { "class_name": "Policy", "config": { "name": "mixed_float16" } },
                            "axis": [3],
                            "momentum": 0.99,
                            "epsilon": 0.001,
                            "center": true,
                            "scale": true,
                            "beta_initializer": { "class_name": "Zeros", "config": {} },
                            "gamma_initializer": { "class_name": "Ones", "config": {} },
                            "moving_mean_initializer": { "class_name": "Zeros", "config": {} },
                            "moving_variance_initializer": { "class_name": "Ones", "config": {} },
                            "beta_regularizer": null,
                            "gamma_regularizer": null,
                            "beta_constraint": null,
                            "gamma_constraint": null
                        },
                        "name": "block_8_expand_BN",
                        "inbound_nodes": [[["block_8_expand", 0, 0, {}]]]
                    },
                    {
                        "class_name": "ReLU",
                        "config": {
                            "name": "block_8_expand_relu",
                            "trainable": true,
                            "dtype": { "class_name": "Policy", "config": { "name": "mixed_float16" } },
                            "max_value": 6.0,
                            "negative_slope": 0.0,
                            "threshold": 0.0
                        },
                        "name": "block_8_expand_relu",
                        "inbound_nodes": [[["block_8_expand_BN", 0, 0, {}]]]
                    },
                    {
                        "class_name": "DepthwiseConv2D",
                        "config": {
                            "name": "block_8_depthwise",
                            "trainable": true,
                            "dtype": { "class_name": "Policy", "config": { "name": "mixed_float16" } },
                            "kernel_size": [3, 3],
                            "strides": [1, 1],
                            "padding": "same",
                            "data_format": "channels_last",
                            "dilation_rate": [1, 1],
                            "groups": 1,
                            "activation": "linear",
                            "use_bias": false,
                            "bias_initializer": { "class_name": "Zeros", "config": {} },
                            "bias_regularizer": null,
                            "activity_regularizer": null,
                            "bias_constraint": null,
                            "depth_multiplier": 1,
                            "depthwise_initializer": { "class_name": "GlorotUniform", "config": { "seed": null } },
                            "depthwise_regularizer": { "class_name": "L2", "config": { "l2": 0.0005000000237487257 } },
                            "depthwise_constraint": null
                        },
                        "name": "block_8_depthwise",
                        "inbound_nodes": [[["block_8_expand_relu", 0, 0, {}]]]
                    },
                    {
                        "class_name": "BatchNormalization",
                        "config": {
                            "name": "block_8_depthwise_BN",
                            "trainable": true,
                            "dtype": { "class_name": "Policy", "config": { "name": "mixed_float16" } },
                            "axis": [3],
                            "momentum": 0.99,
                            "epsilon": 0.001,
                            "center": true,
                            "scale": true,
                            "beta_initializer": { "class_name": "Zeros", "config": {} },
                            "gamma_initializer": { "class_name": "Ones", "config": {} },
                            "moving_mean_initializer": { "class_name": "Zeros", "config": {} },
                            "moving_variance_initializer": { "class_name": "Ones", "config": {} },
                            "beta_regularizer": null,
                            "gamma_regularizer": null,
                            "beta_constraint": null,
                            "gamma_constraint": null
                        },
                        "name": "block_8_depthwise_BN",
                        "inbound_nodes": [[["block_8_depthwise", 0, 0, {}]]]
                    },
                    {
                        "class_name": "ReLU",
                        "config": {
                            "name": "block_8_depthwise_relu",
                            "trainable": true,
                            "dtype": { "class_name": "Policy", "config": { "name": "mixed_float16" } },
                            "max_value": 6.0,
                            "negative_slope": 0.0,
                            "threshold": 0.0
                        },
                        "name": "block_8_depthwise_relu",
                        "inbound_nodes": [[["block_8_depthwise_BN", 0, 0, {}]]]
                    },
                    {
                        "class_name": "Conv2D",
                        "config": {
                            "name": "block_8_project",
                            "trainable": true,
                            "dtype": { "class_name": "Policy", "config": { "name": "mixed_float16" } },
                            "filters": 64,
                            "kernel_size": [1, 1],
                            "strides": [1, 1],
                            "padding": "same",
                            "data_format": "channels_last",
                            "dilation_rate": [1, 1],
                            "groups": 1,
                            "activation": "linear",
                            "use_bias": false,
                            "kernel_initializer": { "class_name": "GlorotUniform", "config": { "seed": null } },
                            "bias_initializer": { "class_name": "Zeros", "config": {} },
                            "kernel_regularizer": { "class_name": "L2", "config": { "l2": 0.0005000000237487257 } },
                            "bias_regularizer": null,
                            "activity_regularizer": null,
                            "kernel_constraint": null,
                            "bias_constraint": null
                        },
                        "name": "block_8_project",
                        "inbound_nodes": [[["block_8_depthwise_relu", 0, 0, {}]]]
                    },
                    {
                        "class_name": "BatchNormalization",
                        "config": {
                            "name": "block_8_project_BN",
                            "trainable": true,
                            "dtype": { "class_name": "Policy", "config": { "name": "mixed_float16" } },
                            "axis": [3],
                            "momentum": 0.99,
                            "epsilon": 0.001,
                            "center": true,
                            "scale": true,
                            "beta_initializer": { "class_name": "Zeros", "config": {} },
                            "gamma_initializer": { "class_name": "Ones", "config": {} },
                            "moving_mean_initializer": { "class_name": "Zeros", "config": {} },
                            "moving_variance_initializer": { "class_name": "Ones", "config": {} },
                            "beta_regularizer": null,
                            "gamma_regularizer": null,
                            "beta_constraint": null,
                            "gamma_constraint": null
                        },
                        "name": "block_8_project_BN",
                        "inbound_nodes": [[["block_8_project", 0, 0, {}]]]
                    },
                    {
                        "class_name": "Add",
                        "config": {
                            "name": "block_8_add",
                            "trainable": true,
                            "dtype": { "class_name": "Policy", "config": { "name": "mixed_float16" } }
                        },
                        "name": "block_8_add",
                        "inbound_nodes": [
                            [
                                ["block_7_add", 0, 0, {}],
                                ["block_8_project_BN", 0, 0, {}]
                            ]
                        ]
                    },
                    {
                        "class_name": "Conv2D",
                        "config": {
                            "name": "block_9_expand",
                            "trainable": true,
                            "dtype": { "class_name": "Policy", "config": { "name": "mixed_float16" } },
                            "filters": 384,
                            "kernel_size": [1, 1],
                            "strides": [1, 1],
                            "padding": "same",
                            "data_format": "channels_last",
                            "dilation_rate": [1, 1],
                            "groups": 1,
                            "activation": "linear",
                            "use_bias": false,
                            "kernel_initializer": { "class_name": "GlorotUniform", "config": { "seed": null } },
                            "bias_initializer": { "class_name": "Zeros", "config": {} },
                            "kernel_regularizer": { "class_name": "L2", "config": { "l2": 0.0005000000237487257 } },
                            "bias_regularizer": null,
                            "activity_regularizer": null,
                            "kernel_constraint": null,
                            "bias_constraint": null
                        },
                        "name": "block_9_expand",
                        "inbound_nodes": [[["block_8_add", 0, 0, {}]]]
                    },
                    {
                        "class_name": "BatchNormalization",
                        "config": {
                            "name": "block_9_expand_BN",
                            "trainable": true,
                            "dtype": { "class_name": "Policy", "config": { "name": "mixed_float16" } },
                            "axis": [3],
                            "momentum": 0.99,
                            "epsilon": 0.001,
                            "center": true,
                            "scale": true,
                            "beta_initializer": { "class_name": "Zeros", "config": {} },
                            "gamma_initializer": { "class_name": "Ones", "config": {} },
                            "moving_mean_initializer": { "class_name": "Zeros", "config": {} },
                            "moving_variance_initializer": { "class_name": "Ones", "config": {} },
                            "beta_regularizer": null,
                            "gamma_regularizer": null,
                            "beta_constraint": null,
                            "gamma_constraint": null
                        },
                        "name": "block_9_expand_BN",
                        "inbound_nodes": [[["block_9_expand", 0, 0, {}]]]
                    },
                    {
                        "class_name": "ReLU",
                        "config": {
                            "name": "block_9_expand_relu",
                            "trainable": true,
                            "dtype": { "class_name": "Policy", "config": { "name": "mixed_float16" } },
                            "max_value": 6.0,
                            "negative_slope": 0.0,
                            "threshold": 0.0
                        },
                        "name": "block_9_expand_relu",
                        "inbound_nodes": [[["block_9_expand_BN", 0, 0, {}]]]
                    },
                    {
                        "class_name": "DepthwiseConv2D",
                        "config": {
                            "name": "block_9_depthwise",
                            "trainable": true,
                            "dtype": { "class_name": "Policy", "config": { "name": "mixed_float16" } },
                            "kernel_size": [3, 3],
                            "strides": [1, 1],
                            "padding": "same",
                            "data_format": "channels_last",
                            "dilation_rate": [1, 1],
                            "groups": 1,
                            "activation": "linear",
                            "use_bias": false,
                            "bias_initializer": { "class_name": "Zeros", "config": {} },
                            "bias_regularizer": null,
                            "activity_regularizer": null,
                            "bias_constraint": null,
                            "depth_multiplier": 1,
                            "depthwise_initializer": { "class_name": "GlorotUniform", "config": { "seed": null } },
                            "depthwise_regularizer": { "class_name": "L2", "config": { "l2": 0.0005000000237487257 } },
                            "depthwise_constraint": null
                        },
                        "name": "block_9_depthwise",
                        "inbound_nodes": [[["block_9_expand_relu", 0, 0, {}]]]
                    },
                    {
                        "class_name": "BatchNormalization",
                        "config": {
                            "name": "block_9_depthwise_BN",
                            "trainable": true,
                            "dtype": { "class_name": "Policy", "config": { "name": "mixed_float16" } },
                            "axis": [3],
                            "momentum": 0.99,
                            "epsilon": 0.001,
                            "center": true,
                            "scale": true,
                            "beta_initializer": { "class_name": "Zeros", "config": {} },
                            "gamma_initializer": { "class_name": "Ones", "config": {} },
                            "moving_mean_initializer": { "class_name": "Zeros", "config": {} },
                            "moving_variance_initializer": { "class_name": "Ones", "config": {} },
                            "beta_regularizer": null,
                            "gamma_regularizer": null,
                            "beta_constraint": null,
                            "gamma_constraint": null
                        },
                        "name": "block_9_depthwise_BN",
                        "inbound_nodes": [[["block_9_depthwise", 0, 0, {}]]]
                    },
                    {
                        "class_name": "ReLU",
                        "config": {
                            "name": "block_9_depthwise_relu",
                            "trainable": true,
                            "dtype": { "class_name": "Policy", "config": { "name": "mixed_float16" } },
                            "max_value": 6.0,
                            "negative_slope": 0.0,
                            "threshold": 0.0
                        },
                        "name": "block_9_depthwise_relu",
                        "inbound_nodes": [[["block_9_depthwise_BN", 0, 0, {}]]]
                    },
                    {
                        "class_name": "Conv2D",
                        "config": {
                            "name": "block_9_project",
                            "trainable": true,
                            "dtype": { "class_name": "Policy", "config": { "name": "mixed_float16" } },
                            "filters": 64,
                            "kernel_size": [1, 1],
                            "strides": [1, 1],
                            "padding": "same",
                            "data_format": "channels_last",
                            "dilation_rate": [1, 1],
                            "groups": 1,
                            "activation": "linear",
                            "use_bias": false,
                            "kernel_initializer": { "class_name": "GlorotUniform", "config": { "seed": null } },
                            "bias_initializer": { "class_name": "Zeros", "config": {} },
                            "kernel_regularizer": { "class_name": "L2", "config": { "l2": 0.0005000000237487257 } },
                            "bias_regularizer": null,
                            "activity_regularizer": null,
                            "kernel_constraint": null,
                            "bias_constraint": null
                        },
                        "name": "block_9_project",
                        "inbound_nodes": [[["block_9_depthwise_relu", 0, 0, {}]]]
                    },
                    {
                        "class_name": "BatchNormalization",
                        "config": {
                            "name": "block_9_project_BN",
                            "trainable": true,
                            "dtype": { "class_name": "Policy", "config": { "name": "mixed_float16" } },
                            "axis": [3],
                            "momentum": 0.99,
                            "epsilon": 0.001,
                            "center": true,
                            "scale": true,
                            "beta_initializer": { "class_name": "Zeros", "config": {} },
                            "gamma_initializer": { "class_name": "Ones", "config": {} },
                            "moving_mean_initializer": { "class_name": "Zeros", "config": {} },
                            "moving_variance_initializer": { "class_name": "Ones", "config": {} },
                            "beta_regularizer": null,
                            "gamma_regularizer": null,
                            "beta_constraint": null,
                            "gamma_constraint": null
                        },
                        "name": "block_9_project_BN",
                        "inbound_nodes": [[["block_9_project", 0, 0, {}]]]
                    },
                    {
                        "class_name": "Add",
                        "config": {
                            "name": "block_9_add",
                            "trainable": true,
                            "dtype": { "class_name": "Policy", "config": { "name": "mixed_float16" } }
                        },
                        "name": "block_9_add",
                        "inbound_nodes": [
                            [
                                ["block_8_add", 0, 0, {}],
                                ["block_9_project_BN", 0, 0, {}]
                            ]
                        ]
                    },
                    {
                        "class_name": "Conv2D",
                        "config": {
                            "name": "block_10_expand",
                            "trainable": true,
                            "dtype": { "class_name": "Policy", "config": { "name": "mixed_float16" } },
                            "filters": 384,
                            "kernel_size": [1, 1],
                            "strides": [1, 1],
                            "padding": "same",
                            "data_format": "channels_last",
                            "dilation_rate": [1, 1],
                            "groups": 1,
                            "activation": "linear",
                            "use_bias": false,
                            "kernel_initializer": { "class_name": "GlorotUniform", "config": { "seed": null } },
                            "bias_initializer": { "class_name": "Zeros", "config": {} },
                            "kernel_regularizer": { "class_name": "L2", "config": { "l2": 0.0005000000237487257 } },
                            "bias_regularizer": null,
                            "activity_regularizer": null,
                            "kernel_constraint": null,
                            "bias_constraint": null
                        },
                        "name": "block_10_expand",
                        "inbound_nodes": [[["block_9_add", 0, 0, {}]]]
                    },
                    {
                        "class_name": "BatchNormalization",
                        "config": {
                            "name": "block_10_expand_BN",
                            "trainable": true,
                            "dtype": { "class_name": "Policy", "config": { "name": "mixed_float16" } },
                            "axis": [3],
                            "momentum": 0.99,
                            "epsilon": 0.001,
                            "center": true,
                            "scale": true,
                            "beta_initializer": { "class_name": "Zeros", "config": {} },
                            "gamma_initializer": { "class_name": "Ones", "config": {} },
                            "moving_mean_initializer": { "class_name": "Zeros", "config": {} },
                            "moving_variance_initializer": { "class_name": "Ones", "config": {} },
                            "beta_regularizer": null,
                            "gamma_regularizer": null,
                            "beta_constraint": null,
                            "gamma_constraint": null
                        },
                        "name": "block_10_expand_BN",
                        "inbound_nodes": [[["block_10_expand", 0, 0, {}]]]
                    },
                    {
                        "class_name": "ReLU",
                        "config": {
                            "name": "block_10_expand_relu",
                            "trainable": true,
                            "dtype": { "class_name": "Policy", "config": { "name": "mixed_float16" } },
                            "max_value": 6.0,
                            "negative_slope": 0.0,
                            "threshold": 0.0
                        },
                        "name": "block_10_expand_relu",
                        "inbound_nodes": [[["block_10_expand_BN", 0, 0, {}]]]
                    },
                    {
                        "class_name": "DepthwiseConv2D",
                        "config": {
                            "name": "block_10_depthwise",
                            "trainable": true,
                            "dtype": { "class_name": "Policy", "config": { "name": "mixed_float16" } },
                            "kernel_size": [3, 3],
                            "strides": [1, 1],
                            "padding": "same",
                            "data_format": "channels_last",
                            "dilation_rate": [1, 1],
                            "groups": 1,
                            "activation": "linear",
                            "use_bias": false,
                            "bias_initializer": { "class_name": "Zeros", "config": {} },
                            "bias_regularizer": null,
                            "activity_regularizer": null,
                            "bias_constraint": null,
                            "depth_multiplier": 1,
                            "depthwise_initializer": { "class_name": "GlorotUniform", "config": { "seed": null } },
                            "depthwise_regularizer": { "class_name": "L2", "config": { "l2": 0.0005000000237487257 } },
                            "depthwise_constraint": null
                        },
                        "name": "block_10_depthwise",
                        "inbound_nodes": [[["block_10_expand_relu", 0, 0, {}]]]
                    },
                    {
                        "class_name": "BatchNormalization",
                        "config": {
                            "name": "block_10_depthwise_BN",
                            "trainable": true,
                            "dtype": { "class_name": "Policy", "config": { "name": "mixed_float16" } },
                            "axis": [3],
                            "momentum": 0.99,
                            "epsilon": 0.001,
                            "center": true,
                            "scale": true,
                            "beta_initializer": { "class_name": "Zeros", "config": {} },
                            "gamma_initializer": { "class_name": "Ones", "config": {} },
                            "moving_mean_initializer": { "class_name": "Zeros", "config": {} },
                            "moving_variance_initializer": { "class_name": "Ones", "config": {} },
                            "beta_regularizer": null,
                            "gamma_regularizer": null,
                            "beta_constraint": null,
                            "gamma_constraint": null
                        },
                        "name": "block_10_depthwise_BN",
                        "inbound_nodes": [[["block_10_depthwise", 0, 0, {}]]]
                    },
                    {
                        "class_name": "ReLU",
                        "config": {
                            "name": "block_10_depthwise_relu",
                            "trainable": true,
                            "dtype": { "class_name": "Policy", "config": { "name": "mixed_float16" } },
                            "max_value": 6.0,
                            "negative_slope": 0.0,
                            "threshold": 0.0
                        },
                        "name": "block_10_depthwise_relu",
                        "inbound_nodes": [[["block_10_depthwise_BN", 0, 0, {}]]]
                    },
                    {
                        "class_name": "Conv2D",
                        "config": {
                            "name": "block_10_project",
                            "trainable": true,
                            "dtype": { "class_name": "Policy", "config": { "name": "mixed_float16" } },
                            "filters": 96,
                            "kernel_size": [1, 1],
                            "strides": [1, 1],
                            "padding": "same",
                            "data_format": "channels_last",
                            "dilation_rate": [1, 1],
                            "groups": 1,
                            "activation": "linear",
                            "use_bias": false,
                            "kernel_initializer": { "class_name": "GlorotUniform", "config": { "seed": null } },
                            "bias_initializer": { "class_name": "Zeros", "config": {} },
                            "kernel_regularizer": { "class_name": "L2", "config": { "l2": 0.0005000000237487257 } },
                            "bias_regularizer": null,
                            "activity_regularizer": null,
                            "kernel_constraint": null,
                            "bias_constraint": null
                        },
                        "name": "block_10_project",
                        "inbound_nodes": [[["block_10_depthwise_relu", 0, 0, {}]]]
                    },
                    {
                        "class_name": "BatchNormalization",
                        "config": {
                            "name": "block_10_project_BN",
                            "trainable": true,
                            "dtype": { "class_name": "Policy", "config": { "name": "mixed_float16" } },
                            "axis": [3],
                            "momentum": 0.99,
                            "epsilon": 0.001,
                            "center": true,
                            "scale": true,
                            "beta_initializer": { "class_name": "Zeros", "config": {} },
                            "gamma_initializer": { "class_name": "Ones", "config": {} },
                            "moving_mean_initializer": { "class_name": "Zeros", "config": {} },
                            "moving_variance_initializer": { "class_name": "Ones", "config": {} },
                            "beta_regularizer": null,
                            "gamma_regularizer": null,
                            "beta_constraint": null,
                            "gamma_constraint": null
                        },
                        "name": "block_10_project_BN",
                        "inbound_nodes": [[["block_10_project", 0, 0, {}]]]
                    },
                    {
                        "class_name": "Conv2D",
                        "config": {
                            "name": "block_11_expand",
                            "trainable": true,
                            "dtype": { "class_name": "Policy", "config": { "name": "mixed_float16" } },
                            "filters": 576,
                            "kernel_size": [1, 1],
                            "strides": [1, 1],
                            "padding": "same",
                            "data_format": "channels_last",
                            "dilation_rate": [1, 1],
                            "groups": 1,
                            "activation": "linear",
                            "use_bias": false,
                            "kernel_initializer": { "class_name": "GlorotUniform", "config": { "seed": null } },
                            "bias_initializer": { "class_name": "Zeros", "config": {} },
                            "kernel_regularizer": { "class_name": "L2", "config": { "l2": 0.0005000000237487257 } },
                            "bias_regularizer": null,
                            "activity_regularizer": null,
                            "kernel_constraint": null,
                            "bias_constraint": null
                        },
                        "name": "block_11_expand",
                        "inbound_nodes": [[["block_10_project_BN", 0, 0, {}]]]
                    },
                    {
                        "class_name": "BatchNormalization",
                        "config": {
                            "name": "block_11_expand_BN",
                            "trainable": true,
                            "dtype": { "class_name": "Policy", "config": { "name": "mixed_float16" } },
                            "axis": [3],
                            "momentum": 0.99,
                            "epsilon": 0.001,
                            "center": true,
                            "scale": true,
                            "beta_initializer": { "class_name": "Zeros", "config": {} },
                            "gamma_initializer": { "class_name": "Ones", "config": {} },
                            "moving_mean_initializer": { "class_name": "Zeros", "config": {} },
                            "moving_variance_initializer": { "class_name": "Ones", "config": {} },
                            "beta_regularizer": null,
                            "gamma_regularizer": null,
                            "beta_constraint": null,
                            "gamma_constraint": null
                        },
                        "name": "block_11_expand_BN",
                        "inbound_nodes": [[["block_11_expand", 0, 0, {}]]]
                    },
                    {
                        "class_name": "ReLU",
                        "config": {
                            "name": "block_11_expand_relu",
                            "trainable": true,
                            "dtype": { "class_name": "Policy", "config": { "name": "mixed_float16" } },
                            "max_value": 6.0,
                            "negative_slope": 0.0,
                            "threshold": 0.0
                        },
                        "name": "block_11_expand_relu",
                        "inbound_nodes": [[["block_11_expand_BN", 0, 0, {}]]]
                    },
                    {
                        "class_name": "DepthwiseConv2D",
                        "config": {
                            "name": "block_11_depthwise",
                            "trainable": true,
                            "dtype": { "class_name": "Policy", "config": { "name": "mixed_float16" } },
                            "kernel_size": [3, 3],
                            "strides": [1, 1],
                            "padding": "same",
                            "data_format": "channels_last",
                            "dilation_rate": [1, 1],
                            "groups": 1,
                            "activation": "linear",
                            "use_bias": false,
                            "bias_initializer": { "class_name": "Zeros", "config": {} },
                            "bias_regularizer": null,
                            "activity_regularizer": null,
                            "bias_constraint": null,
                            "depth_multiplier": 1,
                            "depthwise_initializer": { "class_name": "GlorotUniform", "config": { "seed": null } },
                            "depthwise_regularizer": { "class_name": "L2", "config": { "l2": 0.0005000000237487257 } },
                            "depthwise_constraint": null
                        },
                        "name": "block_11_depthwise",
                        "inbound_nodes": [[["block_11_expand_relu", 0, 0, {}]]]
                    },
                    {
                        "class_name": "BatchNormalization",
                        "config": {
                            "name": "block_11_depthwise_BN",
                            "trainable": true,
                            "dtype": { "class_name": "Policy", "config": { "name": "mixed_float16" } },
                            "axis": [3],
                            "momentum": 0.99,
                            "epsilon": 0.001,
                            "center": true,
                            "scale": true,
                            "beta_initializer": { "class_name": "Zeros", "config": {} },
                            "gamma_initializer": { "class_name": "Ones", "config": {} },
                            "moving_mean_initializer": { "class_name": "Zeros", "config": {} },
                            "moving_variance_initializer": { "class_name": "Ones", "config": {} },
                            "beta_regularizer": null,
                            "gamma_regularizer": null,
                            "beta_constraint": null,
                            "gamma_constraint": null
                        },
                        "name": "block_11_depthwise_BN",
                        "inbound_nodes": [[["block_11_depthwise", 0, 0, {}]]]
                    },
                    {
                        "class_name": "ReLU",
                        "config": {
                            "name": "block_11_depthwise_relu",
                            "trainable": true,
                            "dtype": { "class_name": "Policy", "config": { "name": "mixed_float16" } },
                            "max_value": 6.0,
                            "negative_slope": 0.0,
                            "threshold": 0.0
                        },
                        "name": "block_11_depthwise_relu",
                        "inbound_nodes": [[["block_11_depthwise_BN", 0, 0, {}]]]
                    },
                    {
                        "class_name": "Conv2D",
                        "config": {
                            "name": "block_11_project",
                            "trainable": true,
                            "dtype": { "class_name": "Policy", "config": { "name": "mixed_float16" } },
                            "filters": 96,
                            "kernel_size": [1, 1],
                            "strides": [1, 1],
                            "padding": "same",
                            "data_format": "channels_last",
                            "dilation_rate": [1, 1],
                            "groups": 1,
                            "activation": "linear",
                            "use_bias": false,
                            "kernel_initializer": { "class_name": "GlorotUniform", "config": { "seed": null } },
                            "bias_initializer": { "class_name": "Zeros", "config": {} },
                            "kernel_regularizer": { "class_name": "L2", "config": { "l2": 0.0005000000237487257 } },
                            "bias_regularizer": null,
                            "activity_regularizer": null,
                            "kernel_constraint": null,
                            "bias_constraint": null
                        },
                        "name": "block_11_project",
                        "inbound_nodes": [[["block_11_depthwise_relu", 0, 0, {}]]]
                    },
                    {
                        "class_name": "BatchNormalization",
                        "config": {
                            "name": "block_11_project_BN",
                            "trainable": true,
                            "dtype": { "class_name": "Policy", "config": { "name": "mixed_float16" } },
                            "axis": [3],
                            "momentum": 0.99,
                            "epsilon": 0.001,
                            "center": true,
                            "scale": true,
                            "beta_initializer": { "class_name": "Zeros", "config": {} },
                            "gamma_initializer": { "class_name": "Ones", "config": {} },
                            "moving_mean_initializer": { "class_name": "Zeros", "config": {} },
                            "moving_variance_initializer": { "class_name": "Ones", "config": {} },
                            "beta_regularizer": null,
                            "gamma_regularizer": null,
                            "beta_constraint": null,
                            "gamma_constraint": null
                        },
                        "name": "block_11_project_BN",
                        "inbound_nodes": [[["block_11_project", 0, 0, {}]]]
                    },
                    {
                        "class_name": "Add",
                        "config": {
                            "name": "block_11_add",
                            "trainable": true,
                            "dtype": { "class_name": "Policy", "config": { "name": "mixed_float16" } }
                        },
                        "name": "block_11_add",
                        "inbound_nodes": [
                            [
                                ["block_10_project_BN", 0, 0, {}],
                                ["block_11_project_BN", 0, 0, {}]
                            ]
                        ]
                    },
                    {
                        "class_name": "Conv2D",
                        "config": {
                            "name": "block_12_expand",
                            "trainable": true,
                            "dtype": { "class_name": "Policy", "config": { "name": "mixed_float16" } },
                            "filters": 576,
                            "kernel_size": [1, 1],
                            "strides": [1, 1],
                            "padding": "same",
                            "data_format": "channels_last",
                            "dilation_rate": [1, 1],
                            "groups": 1,
                            "activation": "linear",
                            "use_bias": false,
                            "kernel_initializer": { "class_name": "GlorotUniform", "config": { "seed": null } },
                            "bias_initializer": { "class_name": "Zeros", "config": {} },
                            "kernel_regularizer": { "class_name": "L2", "config": { "l2": 0.0005000000237487257 } },
                            "bias_regularizer": null,
                            "activity_regularizer": null,
                            "kernel_constraint": null,
                            "bias_constraint": null
                        },
                        "name": "block_12_expand",
                        "inbound_nodes": [[["block_11_add", 0, 0, {}]]]
                    },
                    {
                        "class_name": "BatchNormalization",
                        "config": {
                            "name": "block_12_expand_BN",
                            "trainable": true,
                            "dtype": { "class_name": "Policy", "config": { "name": "mixed_float16" } },
                            "axis": [3],
                            "momentum": 0.99,
                            "epsilon": 0.001,
                            "center": true,
                            "scale": true,
                            "beta_initializer": { "class_name": "Zeros", "config": {} },
                            "gamma_initializer": { "class_name": "Ones", "config": {} },
                            "moving_mean_initializer": { "class_name": "Zeros", "config": {} },
                            "moving_variance_initializer": { "class_name": "Ones", "config": {} },
                            "beta_regularizer": null,
                            "gamma_regularizer": null,
                            "beta_constraint": null,
                            "gamma_constraint": null
                        },
                        "name": "block_12_expand_BN",
                        "inbound_nodes": [[["block_12_expand", 0, 0, {}]]]
                    },
                    {
                        "class_name": "ReLU",
                        "config": {
                            "name": "block_12_expand_relu",
                            "trainable": true,
                            "dtype": { "class_name": "Policy", "config": { "name": "mixed_float16" } },
                            "max_value": 6.0,
                            "negative_slope": 0.0,
                            "threshold": 0.0
                        },
                        "name": "block_12_expand_relu",
                        "inbound_nodes": [[["block_12_expand_BN", 0, 0, {}]]]
                    },
                    {
                        "class_name": "DepthwiseConv2D",
                        "config": {
                            "name": "block_12_depthwise",
                            "trainable": true,
                            "dtype": { "class_name": "Policy", "config": { "name": "mixed_float16" } },
                            "kernel_size": [3, 3],
                            "strides": [1, 1],
                            "padding": "same",
                            "data_format": "channels_last",
                            "dilation_rate": [1, 1],
                            "groups": 1,
                            "activation": "linear",
                            "use_bias": false,
                            "bias_initializer": { "class_name": "Zeros", "config": {} },
                            "bias_regularizer": null,
                            "activity_regularizer": null,
                            "bias_constraint": null,
                            "depth_multiplier": 1,
                            "depthwise_initializer": { "class_name": "GlorotUniform", "config": { "seed": null } },
                            "depthwise_regularizer": { "class_name": "L2", "config": { "l2": 0.0005000000237487257 } },
                            "depthwise_constraint": null
                        },
                        "name": "block_12_depthwise",
                        "inbound_nodes": [[["block_12_expand_relu", 0, 0, {}]]]
                    },
                    {
                        "class_name": "BatchNormalization",
                        "config": {
                            "name": "block_12_depthwise_BN",
                            "trainable": true,
                            "dtype": { "class_name": "Policy", "config": { "name": "mixed_float16" } },
                            "axis": [3],
                            "momentum": 0.99,
                            "epsilon": 0.001,
                            "center": true,
                            "scale": true,
                            "beta_initializer": { "class_name": "Zeros", "config": {} },
                            "gamma_initializer": { "class_name": "Ones", "config": {} },
                            "moving_mean_initializer": { "class_name": "Zeros", "config": {} },
                            "moving_variance_initializer": { "class_name": "Ones", "config": {} },
                            "beta_regularizer": null,
                            "gamma_regularizer": null,
                            "beta_constraint": null,
                            "gamma_constraint": null
                        },
                        "name": "block_12_depthwise_BN",
                        "inbound_nodes": [[["block_12_depthwise", 0, 0, {}]]]
                    },
                    {
                        "class_name": "ReLU",
                        "config": {
                            "name": "block_12_depthwise_relu",
                            "trainable": true,
                            "dtype": { "class_name": "Policy", "config": { "name": "mixed_float16" } },
                            "max_value": 6.0,
                            "negative_slope": 0.0,
                            "threshold": 0.0
                        },
                        "name": "block_12_depthwise_relu",
                        "inbound_nodes": [[["block_12_depthwise_BN", 0, 0, {}]]]
                    },
                    {
                        "class_name": "Conv2D",
                        "config": {
                            "name": "block_12_project",
                            "trainable": true,
                            "dtype": { "class_name": "Policy", "config": { "name": "mixed_float16" } },
                            "filters": 96,
                            "kernel_size": [1, 1],
                            "strides": [1, 1],
                            "padding": "same",
                            "data_format": "channels_last",
                            "dilation_rate": [1, 1],
                            "groups": 1,
                            "activation": "linear",
                            "use_bias": false,
                            "kernel_initializer": { "class_name": "GlorotUniform", "config": { "seed": null } },
                            "bias_initializer": { "class_name": "Zeros", "config": {} },
                            "kernel_regularizer": { "class_name": "L2", "config": { "l2": 0.0005000000237487257 } },
                            "bias_regularizer": null,
                            "activity_regularizer": null,
                            "kernel_constraint": null,
                            "bias_constraint": null
                        },
                        "name": "block_12_project",
                        "inbound_nodes": [[["block_12_depthwise_relu", 0, 0, {}]]]
                    },
                    {
                        "class_name": "BatchNormalization",
                        "config": {
                            "name": "block_12_project_BN",
                            "trainable": true,
                            "dtype": { "class_name": "Policy", "config": { "name": "mixed_float16" } },
                            "axis": [3],
                            "momentum": 0.99,
                            "epsilon": 0.001,
                            "center": true,
                            "scale": true,
                            "beta_initializer": { "class_name": "Zeros", "config": {} },
                            "gamma_initializer": { "class_name": "Ones", "config": {} },
                            "moving_mean_initializer": { "class_name": "Zeros", "config": {} },
                            "moving_variance_initializer": { "class_name": "Ones", "config": {} },
                            "beta_regularizer": null,
                            "gamma_regularizer": null,
                            "beta_constraint": null,
                            "gamma_constraint": null
                        },
                        "name": "block_12_project_BN",
                        "inbound_nodes": [[["block_12_project", 0, 0, {}]]]
                    },
                    {
                        "class_name": "Add",
                        "config": {
                            "name": "block_12_add",
                            "trainable": true,
                            "dtype": { "class_name": "Policy", "config": { "name": "mixed_float16" } }
                        },
                        "name": "block_12_add",
                        "inbound_nodes": [
                            [
                                ["block_11_add", 0, 0, {}],
                                ["block_12_project_BN", 0, 0, {}]
                            ]
                        ]
                    },
                    {
                        "class_name": "Conv2D",
                        "config": {
                            "name": "block_13_expand",
                            "trainable": true,
                            "dtype": { "class_name": "Policy", "config": { "name": "mixed_float16" } },
                            "filters": 576,
                            "kernel_size": [1, 1],
                            "strides": [1, 1],
                            "padding": "same",
                            "data_format": "channels_last",
                            "dilation_rate": [1, 1],
                            "groups": 1,
                            "activation": "linear",
                            "use_bias": false,
                            "kernel_initializer": { "class_name": "GlorotUniform", "config": { "seed": null } },
                            "bias_initializer": { "class_name": "Zeros", "config": {} },
                            "kernel_regularizer": { "class_name": "L2", "config": { "l2": 0.0005000000237487257 } },
                            "bias_regularizer": null,
                            "activity_regularizer": null,
                            "kernel_constraint": null,
                            "bias_constraint": null
                        },
                        "name": "block_13_expand",
                        "inbound_nodes": [[["block_12_add", 0, 0, {}]]]
                    },
                    {
                        "class_name": "BatchNormalization",
                        "config": {
                            "name": "block_13_expand_BN",
                            "trainable": true,
                            "dtype": { "class_name": "Policy", "config": { "name": "mixed_float16" } },
                            "axis": [3],
                            "momentum": 0.99,
                            "epsilon": 0.001,
                            "center": true,
                            "scale": true,
                            "beta_initializer": { "class_name": "Zeros", "config": {} },
                            "gamma_initializer": { "class_name": "Ones", "config": {} },
                            "moving_mean_initializer": { "class_name": "Zeros", "config": {} },
                            "moving_variance_initializer": { "class_name": "Ones", "config": {} },
                            "beta_regularizer": null,
                            "gamma_regularizer": null,
                            "beta_constraint": null,
                            "gamma_constraint": null
                        },
                        "name": "block_13_expand_BN",
                        "inbound_nodes": [[["block_13_expand", 0, 0, {}]]]
                    },
                    {
                        "class_name": "ReLU",
                        "config": {
                            "name": "block_13_expand_relu",
                            "trainable": true,
                            "dtype": { "class_name": "Policy", "config": { "name": "mixed_float16" } },
                            "max_value": 6.0,
                            "negative_slope": 0.0,
                            "threshold": 0.0
                        },
                        "name": "block_13_expand_relu",
                        "inbound_nodes": [[["block_13_expand_BN", 0, 0, {}]]]
                    },
                    {
                        "class_name": "ZeroPadding2D",
                        "config": {
                            "name": "block_13_pad",
                            "trainable": true,
                            "dtype": { "class_name": "Policy", "config": { "name": "mixed_float16" } },
                            "padding": [
                                [0, 1],
                                [0, 1]
                            ],
                            "data_format": "channels_last"
                        },
                        "name": "block_13_pad",
                        "inbound_nodes": [[["block_13_expand_relu", 0, 0, {}]]]
                    },
                    {
                        "class_name": "DepthwiseConv2D",
                        "config": {
                            "name": "block_13_depthwise",
                            "trainable": true,
                            "dtype": { "class_name": "Policy", "config": { "name": "mixed_float16" } },
                            "kernel_size": [3, 3],
                            "strides": [2, 2],
                            "padding": "valid",
                            "data_format": "channels_last",
                            "dilation_rate": [1, 1],
                            "groups": 1,
                            "activation": "linear",
                            "use_bias": false,
                            "bias_initializer": { "class_name": "Zeros", "config": {} },
                            "bias_regularizer": null,
                            "activity_regularizer": null,
                            "bias_constraint": null,
                            "depth_multiplier": 1,
                            "depthwise_initializer": { "class_name": "GlorotUniform", "config": { "seed": null } },
                            "depthwise_regularizer": { "class_name": "L2", "config": { "l2": 0.0005000000237487257 } },
                            "depthwise_constraint": null
                        },
                        "name": "block_13_depthwise",
                        "inbound_nodes": [[["block_13_pad", 0, 0, {}]]]
                    },
                    {
                        "class_name": "BatchNormalization",
                        "config": {
                            "name": "block_13_depthwise_BN",
                            "trainable": true,
                            "dtype": { "class_name": "Policy", "config": { "name": "mixed_float16" } },
                            "axis": [3],
                            "momentum": 0.99,
                            "epsilon": 0.001,
                            "center": true,
                            "scale": true,
                            "beta_initializer": { "class_name": "Zeros", "config": {} },
                            "gamma_initializer": { "class_name": "Ones", "config": {} },
                            "moving_mean_initializer": { "class_name": "Zeros", "config": {} },
                            "moving_variance_initializer": { "class_name": "Ones", "config": {} },
                            "beta_regularizer": null,
                            "gamma_regularizer": null,
                            "beta_constraint": null,
                            "gamma_constraint": null
                        },
                        "name": "block_13_depthwise_BN",
                        "inbound_nodes": [[["block_13_depthwise", 0, 0, {}]]]
                    },
                    {
                        "class_name": "ReLU",
                        "config": {
                            "name": "block_13_depthwise_relu",
                            "trainable": true,
                            "dtype": { "class_name": "Policy", "config": { "name": "mixed_float16" } },
                            "max_value": 6.0,
                            "negative_slope": 0.0,
                            "threshold": 0.0
                        },
                        "name": "block_13_depthwise_relu",
                        "inbound_nodes": [[["block_13_depthwise_BN", 0, 0, {}]]]
                    },
                    {
                        "class_name": "Conv2D",
                        "config": {
                            "name": "block_13_project",
                            "trainable": true,
                            "dtype": { "class_name": "Policy", "config": { "name": "mixed_float16" } },
                            "filters": 160,
                            "kernel_size": [1, 1],
                            "strides": [1, 1],
                            "padding": "same",
                            "data_format": "channels_last",
                            "dilation_rate": [1, 1],
                            "groups": 1,
                            "activation": "linear",
                            "use_bias": false,
                            "kernel_initializer": { "class_name": "GlorotUniform", "config": { "seed": null } },
                            "bias_initializer": { "class_name": "Zeros", "config": {} },
                            "kernel_regularizer": { "class_name": "L2", "config": { "l2": 0.0005000000237487257 } },
                            "bias_regularizer": null,
                            "activity_regularizer": null,
                            "kernel_constraint": null,
                            "bias_constraint": null
                        },
                        "name": "block_13_project",
                        "inbound_nodes": [[["block_13_depthwise_relu", 0, 0, {}]]]
                    },
                    {
                        "class_name": "BatchNormalization",
                        "config": {
                            "name": "block_13_project_BN",
                            "trainable": true,
                            "dtype": { "class_name": "Policy", "config": { "name": "mixed_float16" } },
                            "axis": [3],
                            "momentum": 0.99,
                            "epsilon": 0.001,
                            "center": true,
                            "scale": true,
                            "beta_initializer": { "class_name": "Zeros", "config": {} },
                            "gamma_initializer": { "class_name": "Ones", "config": {} },
                            "moving_mean_initializer": { "class_name": "Zeros", "config": {} },
                            "moving_variance_initializer": { "class_name": "Ones", "config": {} },
                            "beta_regularizer": null,
                            "gamma_regularizer": null,
                            "beta_constraint": null,
                            "gamma_constraint": null
                        },
                        "name": "block_13_project_BN",
                        "inbound_nodes": [[["block_13_project", 0, 0, {}]]]
                    },
                    {
                        "class_name": "Conv2D",
                        "config": {
                            "name": "block_14_expand",
                            "trainable": true,
                            "dtype": { "class_name": "Policy", "config": { "name": "mixed_float16" } },
                            "filters": 960,
                            "kernel_size": [1, 1],
                            "strides": [1, 1],
                            "padding": "same",
                            "data_format": "channels_last",
                            "dilation_rate": [1, 1],
                            "groups": 1,
                            "activation": "linear",
                            "use_bias": false,
                            "kernel_initializer": { "class_name": "GlorotUniform", "config": { "seed": null } },
                            "bias_initializer": { "class_name": "Zeros", "config": {} },
                            "kernel_regularizer": { "class_name": "L2", "config": { "l2": 0.0005000000237487257 } },
                            "bias_regularizer": null,
                            "activity_regularizer": null,
                            "kernel_constraint": null,
                            "bias_constraint": null
                        },
                        "name": "block_14_expand",
                        "inbound_nodes": [[["block_13_project_BN", 0, 0, {}]]]
                    },
                    {
                        "class_name": "BatchNormalization",
                        "config": {
                            "name": "block_14_expand_BN",
                            "trainable": true,
                            "dtype": { "class_name": "Policy", "config": { "name": "mixed_float16" } },
                            "axis": [3],
                            "momentum": 0.99,
                            "epsilon": 0.001,
                            "center": true,
                            "scale": true,
                            "beta_initializer": { "class_name": "Zeros", "config": {} },
                            "gamma_initializer": { "class_name": "Ones", "config": {} },
                            "moving_mean_initializer": { "class_name": "Zeros", "config": {} },
                            "moving_variance_initializer": { "class_name": "Ones", "config": {} },
                            "beta_regularizer": null,
                            "gamma_regularizer": null,
                            "beta_constraint": null,
                            "gamma_constraint": null
                        },
                        "name": "block_14_expand_BN",
                        "inbound_nodes": [[["block_14_expand", 0, 0, {}]]]
                    },
                    {
                        "class_name": "ReLU",
                        "config": {
                            "name": "block_14_expand_relu",
                            "trainable": true,
                            "dtype": { "class_name": "Policy", "config": { "name": "mixed_float16" } },
                            "max_value": 6.0,
                            "negative_slope": 0.0,
                            "threshold": 0.0
                        },
                        "name": "block_14_expand_relu",
                        "inbound_nodes": [[["block_14_expand_BN", 0, 0, {}]]]
                    },
                    {
                        "class_name": "DepthwiseConv2D",
                        "config": {
                            "name": "block_14_depthwise",
                            "trainable": true,
                            "dtype": { "class_name": "Policy", "config": { "name": "mixed_float16" } },
                            "kernel_size": [3, 3],
                            "strides": [1, 1],
                            "padding": "same",
                            "data_format": "channels_last",
                            "dilation_rate": [1, 1],
                            "groups": 1,
                            "activation": "linear",
                            "use_bias": false,
                            "bias_initializer": { "class_name": "Zeros", "config": {} },
                            "bias_regularizer": null,
                            "activity_regularizer": null,
                            "bias_constraint": null,
                            "depth_multiplier": 1,
                            "depthwise_initializer": { "class_name": "GlorotUniform", "config": { "seed": null } },
                            "depthwise_regularizer": { "class_name": "L2", "config": { "l2": 0.0005000000237487257 } },
                            "depthwise_constraint": null
                        },
                        "name": "block_14_depthwise",
                        "inbound_nodes": [[["block_14_expand_relu", 0, 0, {}]]]
…
                        "class_name": "Conv2D",
                        "config": {
                            "name": "loc_1_conv",
                            "trainable": true,
                            "dtype": { "class_name": "Policy", "config": { "name": "mixed_float16" } },
                            "filters": 24,
                            "kernel_size": [1, 1],
                            "strides": [1, 1],
                            "padding": "same",
                            "data_format": "channels_last",
                            "dilation_rate": [1, 1],
                            "groups": 1,
                            "activation": "linear",
                            "use_bias": true,
                            "kernel_initializer": { "class_name": "GlorotUniform", "config": { "seed": null } },
                            "bias_initializer": { "class_name": "Zeros", "config": {} },
                            "kernel_regularizer": { "class_name": "L2", "config": { "l2": 0.0005000000237487257 } },
                            "bias_regularizer": null,
                            "activity_regularizer": null,
                            "kernel_constraint": null,
                            "bias_constraint": null
                        },
                        "name": "loc_1_conv",
                        "inbound_nodes": [[["out_relu", 0, 0, {}]]]
                    },
                    {
                        "class_name": "Conv2D",
                        "config": {
                            "name": "loc_2_conv",
                            "trainable": true,
                            "dtype": { "class_name": "Policy", "config": { "name": "mixed_float16" } },
                            "filters": 24,
                            "kernel_size": [1, 1],
                            "strides": [1, 1],
                            "padding": "same",
                            "data_format": "channels_last",
                            "dilation_rate": [1, 1],
                            "groups": 1,
                            "activation": "linear",
                            "use_bias": true,
                            "kernel_initializer": { "class_name": "GlorotUniform", "config": { "seed": null } },
                            "bias_initializer": { "class_name": "Zeros", "config": {} },
                            "kernel_regularizer": { "class_name": "L2", "config": { "l2": 0.0005000000237487257 } },
                            "bias_regularizer": null,
                            "activity_regularizer": null,
                            "kernel_constraint": null,
                            "bias_constraint": null
                        },
                        "name": "loc_2_conv",
                        "inbound_nodes": [[["block_14_relu2", 0, 0, {}]]]
                    },
                    {
                        "class_name": "Conv2D",
                        "config": {
                            "name": "loc_3_conv",
                            "trainable": true,
                            "dtype": { "class_name": "Policy", "config": { "name": "mixed_float16" } },
                            "filters": 24,
                            "kernel_size": [1, 1],
                            "strides": [1, 1],
                            "padding": "same",
                            "data_format": "channels_last",
                            "dilation_rate": [1, 1],
                            "groups": 1,
                            "activation": "linear",
                            "use_bias": true,
                            "kernel_initializer": { "class_name": "GlorotUniform", "config": { "seed": null } },
                            "bias_initializer": { "class_name": "Zeros", "config": {} },
                            "kernel_regularizer": { "class_name": "L2", "config": { "l2": 0.0005000000237487257 } },
                            "bias_regularizer": null,
                            "activity_regularizer": null,
                            "kernel_constraint": null,
                            "bias_constraint": null
                        },
                        "name": "loc_3_conv",
                        "inbound_nodes": [[["block_15_relu2", 0, 0, {}]]]
                    },
                    {
                        "class_name": "Conv2D",
                        "config": {
                            "name": "loc_4_conv",
                            "trainable": true,
                            "dtype": { "class_name": "Policy", "config": { "name": "mixed_float16" } },
                            "filters": 16,
                            "kernel_size": [1, 1],
                            "strides": [1, 1],
                            "padding": "same",
                            "data_format": "channels_last",
                            "dilation_rate": [1, 1],
                            "groups": 1,
                            "activation": "linear",
                            "use_bias": true,
                            "kernel_initializer": { "class_name": "GlorotUniform", "config": { "seed": null } },
                            "bias_initializer": { "class_name": "Zeros", "config": {} },
                            "kernel_regularizer": { "class_name": "L2", "config": { "l2": 0.0005000000237487257 } },
                            "bias_regularizer": null,
                            "activity_regularizer": null,
                            "kernel_constraint": null,
                            "bias_constraint": null
                        },
                        "name": "loc_4_conv",
                        "inbound_nodes": [[["block_16_relu2", 0, 0, {}]]]
                    },
                    {
                        "class_name": "Conv2D",
                        "config": {
                            "name": "loc_5_conv",
                            "trainable": true,
                            "dtype": { "class_name": "Policy", "config": { "name": "mixed_float16" } },
                            "filters": 16,
                            "kernel_size": [1, 1],
                            "strides": [1, 1],
                            "padding": "same",
                            "data_format": "channels_last",
                            "dilation_rate": [1, 1],
                            "groups": 1,
                            "activation": "linear",
                            "use_bias": true,
                            "kernel_initializer": { "class_name": "GlorotUniform", "config": { "seed": null } },
                            "bias_initializer": { "class_name": "Zeros", "config": {} },
                            "kernel_regularizer": { "class_name": "L2", "config": { "l2": 0.0005000000237487257 } },
                            "bias_regularizer": null,
                            "activity_regularizer": null,
                            "kernel_constraint": null,
                            "bias_constraint": null
                        },
                        "name": "loc_5_conv",
                        "inbound_nodes": [[["block_17_relu2", 0, 0, {}]]]
                    },
                    {
                        "class_name": "Reshape",
                        "config": {
                            "name": "cls_0_reshape",
                            "trainable": true,
                            "dtype": { "class_name": "Policy", "config": { "name": "mixed_float16" } },
                            "target_shape": [-1, 21]
                        },
                        "name": "cls_0_reshape",
                        "inbound_nodes": [[["cls_0_conv", 0, 0, {}]]]
                    },
                    {
                        "class_name": "Reshape",
                        "config": {
                            "name": "cls_1_reshape",
                            "trainable": true,
                            "dtype": { "class_name": "Policy", "config": { "name": "mixed_float16" } },
                            "target_shape": [-1, 21]
                        },
                        "name": "cls_1_reshape",
                        "inbound_nodes": [[["cls_1_conv", 0, 0, {}]]]
                    },
                    {
                        "class_name": "Reshape",
                        "config": {
                            "name": "cls_2_reshape",
                            "trainable": true,
                            "dtype": { "class_name": "Policy", "config": { "name": "mixed_float16" } },
                            "target_shape": [-1, 21]
                        },
                        "name": "cls_2_reshape",
                        "inbound_nodes": [[["cls_2_conv", 0, 0, {}]]]
                    },
                    {
                        "class_name": "Reshape",
                        "config": {
                            "name": "cls_3_reshape",
                            "trainable": true,
                            "dtype": { "class_name": "Policy", "config": { "name": "mixed_float16" } },
                            "target_shape": [-1, 21]
                        },
                        "name": "cls_3_reshape",
                        "inbound_nodes": [[["cls_3_conv", 0, 0, {}]]]
                    },
                    {
                        "class_name": "Reshape",
                        "config": {
                            "name": "cls_4_reshape",
                            "trainable": true,
                            "dtype": { "class_name": "Policy", "config": { "name": "mixed_float16" } },
                            "target_shape": [-1, 21]
                        },
                        "name": "cls_4_reshape",
                        "inbound_nodes": [[["cls_4_conv", 0, 0, {}]]]
                    },
                    {
                        "class_name": "Reshape",
                        "config": {
                            "name": "cls_5_reshape",
                            "trainable": true,
                            "dtype": { "class_name": "Policy", "config": { "name": "mixed_float16" } },
                            "target_shape": [-1, 21]
                        },
                        "name": "cls_5_reshape",
                        "inbound_nodes": [[["cls_5_conv", 0, 0, {}]]]
                    },
                    {
                        "class_name": "Reshape",
                        "config": {
                            "name": "loc_0_reshape",
                            "trainable": true,
                            "dtype": { "class_name": "Policy", "config": { "name": "mixed_float16" } },
                            "target_shape": [-1, 4]
                        },
                        "name": "loc_0_reshape",
                        "inbound_nodes": [[["loc_0_conv", 0, 0, {}]]]
                    },
                    {
                        "class_name": "Reshape",
                        "config": {
                            "name": "loc_1_reshape",
                            "trainable": true,
                            "dtype": { "class_name": "Policy", "config": { "name": "mixed_float16" } },
                            "target_shape": [-1, 4]
                        },
                        "name": "loc_1_reshape",
                        "inbound_nodes": [[["loc_1_conv", 0, 0, {}]]]
                    },
                    {
                        "class_name": "Reshape",
                        "config": {
                            "name": "loc_2_reshape",
                            "trainable": true,
                            "dtype": { "class_name": "Policy", "config": { "name": "mixed_float16" } },
                            "target_shape": [-1, 4]
                        },
                        "name": "loc_2_reshape",
                        "inbound_nodes": [[["loc_2_conv", 0, 0, {}]]]
                    },
                    {
                        "class_name": "Reshape",
                        "config": {
                            "name": "loc_3_reshape",
                            "trainable": true,
                            "dtype": { "class_name": "Policy", "config": { "name": "mixed_float16" } },
                            "target_shape": [-1, 4]
                        },
                        "name": "loc_3_reshape",
                        "inbound_nodes": [[["loc_3_conv", 0, 0, {}]]]
                    },
                    {
                        "class_name": "Reshape",
                        "config": {
                            "name": "loc_4_reshape",
                            "trainable": true,
                            "dtype": { "class_name": "Policy", "config": { "name": "mixed_float16" } },
                            "target_shape": [-1, 4]
                        },
                        "name": "loc_4_reshape",
                        "inbound_nodes": [[["loc_4_conv", 0, 0, {}]]]
                    },
                    {
                        "class_name": "Reshape",
                        "config": {
                            "name": "loc_5_reshape",
                            "trainable": true,
                            "dtype": { "class_name": "Policy", "config": { "name": "mixed_float16" } },
                            "target_shape": [-1, 4]
                        },
                        "name": "loc_5_reshape",
                        "inbound_nodes": [[["loc_5_conv", 0, 0, {}]]]
                    },
                    {
                        "class_name": "Concatenate",
                        "config": {
                            "name": "cls_logits",
                            "trainable": true,
                            "dtype": { "class_name": "Policy", "config": { "name": "mixed_float16" } },
                            "axis": 1
                        },
                        "name": "cls_logits",
                        "inbound_nodes": [
                            [
                                ["cls_0_reshape", 0, 0, {}],
                                ["cls_1_reshape", 0, 0, {}],
                                ["cls_2_reshape", 0, 0, {}],
                                ["cls_3_reshape", 0, 0, {}],
                                ["cls_4_reshape", 0, 0, {}],
                                ["cls_5_reshape", 0, 0, {}]
                            ]
                        ]
                    },
                    {
                        "class_name": "Concatenate",
                        "config": {
                            "name": "loc_logits",
                            "trainable": true,
                            "dtype": { "class_name": "Policy", "config": { "name": "mixed_float16" } },
                            "axis": 1
                        },
                        "name": "loc_logits",
                        "inbound_nodes": [
                            [
                                ["loc_0_reshape", 0, 0, {}],
                                ["loc_1_reshape", 0, 0, {}],
                                ["loc_2_reshape", 0, 0, {}],
                                ["loc_3_reshape", 0, 0, {}],
                                ["loc_4_reshape", 0, 0, {}],
                                ["loc_5_reshape", 0, 0, {}]
                            ]
                        ]
                    },
                    {
                        "class_name": "Activation",
                        "config": {
                            "name": "cls_logits_identity",
                            "trainable": true,
                            "dtype": "float32",
                            "activation": "linear"
                        },
                        "name": "cls_logits_identity",
                        "inbound_nodes": [[["cls_logits", 0, 0, {}]]]
                    },
                    {
                        "class_name": "Activation",
                        "config": {
                            "name": "loc_logits_identity",
                            "trainable": true,
                            "dtype": "float32",
                            "activation": "linear"
                        },
                        "name": "loc_logits_identity",
                        "inbound_nodes": [[["loc_logits", 0, 0, {}]]]
                    }
                ],
                "input_layers": [["input_1", 0, 0]],
                "output_layers": [
                    ["cls_logits_identity", 0, 0],
                    ["loc_logits_identity", 0, 0]
                ]
            }
        }
    },
    "weightsManifest": [
        {
            "paths": ["group1-shard1of4.bin", "group1-shard2of4.bin", "group1-shard3of4.bin", "group1-shard4of4.bin"],
            "weights": [
                { "name": "Conv1/kernel", "shape": [3, 3, 3, 32], "dtype": "float32" },
                { "name": "Conv_1/kernel", "shape": [1, 1, 320, 1280], "dtype": "float32" },
                { "name": "Conv_1_bn/gamma", "shape": [1280], "dtype": "float32" },
                { "name": "Conv_1_bn/beta", "shape": [1280], "dtype": "float32" },
                { "name": "Conv_1_bn/moving_mean", "shape": [1280], "dtype": "float32" },
                { "name": "Conv_1_bn/moving_variance", "shape": [1280], "dtype": "float32" },
                { "name": "block_10_depthwise/depthwise_kernel", "shape": [3, 3, 384, 1], "dtype": "float32" },
                { "name": "block_10_depthwise_BN/gamma", "shape": [384], "dtype": "float32" },
                { "name": "block_10_depthwise_BN/beta", "shape": [384], "dtype": "float32" },
                { "name": "block_10_depthwise_BN/moving_mean", "shape": [384], "dtype": "float32" },
                { "name": "block_10_depthwise_BN/moving_variance", "shape": [384], "dtype": "float32" },
                { "name": "block_10_expand/kernel", "shape": [1, 1, 64, 384], "dtype": "float32" },
                { "name": "block_10_expand_BN/gamma", "shape": [384], "dtype": "float32" },
                { "name": "block_10_expand_BN/beta", "shape": [384], "dtype": "float32" },
                { "name": "block_10_expand_BN/moving_mean", "shape": [384], "dtype": "float32" },
                { "name": "block_10_expand_BN/moving_variance", "shape": [384], "dtype": "float32" },
                { "name": "block_10_project/kernel", "shape": [1, 1, 384, 96], "dtype": "float32" },
                { "name": "block_10_project_BN/gamma", "shape": [96], "dtype": "float32" },
                { "name": "block_10_project_BN/beta", "shape": [96], "dtype": "float32" },
                { "name": "block_10_project_BN/moving_mean", "shape": [96], "dtype": "float32" },
                { "name": "block_10_project_BN/moving_variance", "shape": [96], "dtype": "float32" },
                { "name": "block_11_depthwise/depthwise_kernel", "shape": [3, 3, 576, 1], "dtype": "float32" },
                { "name": "block_11_depthwise_BN/gamma", "shape": [576], "dtype": "float32" },
                { "name": "block_11_depthwise_BN/beta", "shape": [576], "dtype": "float32" },
                { "name": "block_11_depthwise_BN/moving_mean", "shape": [576], "dtype": "float32" },
                { "name": "block_11_depthwise_BN/moving_variance", "shape": [576], "dtype": "float32" },
                { "name": "block_11_expand/kernel", "shape": [1, 1, 96, 576], "dtype": "float32" },
                { "name": "block_11_expand_BN/gamma", "shape": [576], "dtype": "float32" },
                { "name": "block_11_expand_BN/beta", "shape": [576], "dtype": "float32" },
                { "name": "block_11_expand_BN/moving_mean", "shape": [576], "dtype": "float32" },
                { "name": "block_11_expand_BN/moving_variance", "shape": [576], "dtype": "float32" },
                { "name": "block_11_project/kernel", "shape": [1, 1, 576, 96], "dtype": "float32" },
                { "name": "block_11_project_BN/gamma", "shape": [96], "dtype": "float32" },
                { "name": "block_11_project_BN/beta", "shape": [96], "dtype": "float32" },
                { "name": "block_11_project_BN/moving_mean", "shape": [96], "dtype": "float32" },
                { "name": "block_11_project_BN/moving_variance", "shape": [96], "dtype": "float32" },
                { "name": "block_12_depthwise/depthwise_kernel", "shape": [3, 3, 576, 1], "dtype": "float32" },
                { "name": "block_12_depthwise_BN/gamma", "shape": [576], "dtype": "float32" },
                { "name": "block_12_depthwise_BN/beta", "shape": [576], "dtype": "float32" },
                { "name": "block_12_depthwise_BN/moving_mean", "shape": [576], "dtype": "float32" },
                { "name": "block_12_depthwise_BN/moving_variance", "shape": [576], "dtype": "float32" },
                { "name": "block_12_expand/kernel", "shape": [1, 1, 96, 576], "dtype": "float32" },
                { "name": "block_12_expand_BN/gamma", "shape": [576], "dtype": "float32" },
                { "name": "block_12_expand_BN/beta", "shape": [576], "dtype": "float32" },
                { "name": "block_12_expand_BN/moving_mean", "shape": [576], "dtype": "float32" },
                { "name": "block_12_expand_BN/moving_variance", "shape": [576], "dtype": "float32" },
                { "name": "block_12_project/kernel", "shape": [1, 1, 576, 96], "dtype": "float32" },
                { "name": "block_12_project_BN/gamma", "shape": [96], "dtype": "float32" },
                { "name": "block_12_project_BN/beta", "shape": [96], "dtype": "float32" },
                { "name": "block_12_project_BN/moving_mean", "shape": [96], "dtype": "float32" },
                { "name": "block_12_project_BN/moving_variance", "shape": [96], "dtype": "float32" },
                { "name": "block_13_depthwise/depthwise_kernel", "shape": [3, 3, 576, 1], "dtype": "float32" },
                { "name": "block_13_depthwise_BN/gamma", "shape": [576], "dtype": "float32" },
                { "name": "block_13_depthwise_BN/beta", "shape": [576], "dtype": "float32" },
                { "name": "block_13_depthwise_BN/moving_mean", "shape": [576], "dtype": "float32" },
                { "name": "block_13_depthwise_BN/moving_variance", "shape": [576], "dtype": "float32" },
                { "name": "block_13_expand/kernel", "shape": [1, 1, 96, 576], "dtype": "float32" },
                { "name": "block_13_expand_BN/gamma", "shape": [576], "dtype": "float32" },
                { "name": "block_13_expand_BN/beta", "shape": [576], "dtype": "float32" },
                { "name": "block_13_expand_BN/moving_mean", "shape": [576], "dtype": "float32" },
                { "name": "block_13_expand_BN/moving_variance", "shape": [576], "dtype": "float32" },
                { "name": "block_13_project/kernel", "shape": [1, 1, 576, 160], "dtype": "float32" },
                { "name": "block_13_project_BN/gamma", "shape": [160], "dtype": "float32" },
                { "name": "block_13_project_BN/beta", "shape": [160], "dtype": "float32" },
                { "name": "block_13_project_BN/moving_mean", "shape": [160], "dtype": "float32" },
                { "name": "block_13_project_BN/moving_variance", "shape": [160], "dtype": "float32" },
                { "name": "block_14_bn1/gamma", "shape": [256], "dtype": "float32" },
                { "name": "block_14_bn1/beta", "shape": [256], "dtype": "float32" },
                { "name": "block_14_bn1/moving_mean", "shape": [256], "dtype": "float32" },
                { "name": "block_14_bn1/moving_variance", "shape": [256], "dtype": "float32" },
                { "name": "block_14_bn2/gamma", "shape": [512], "dtype": "float32" },
                { "name": "block_14_bn2/beta", "shape": [512], "dtype": "float32" },
                { "name": "block_14_bn2/moving_mean", "shape": [512], "dtype": "float32" },
                { "name": "block_14_bn2/moving_variance", "shape": [512], "dtype": "float32" },
                { "name": "block_14_conv1/kernel", "shape": [1, 1, 1280, 256], "dtype": "float32" },
                { "name": "block_14_conv2/kernel", "shape": [1, 1, 256, 512], "dtype": "float32" },
                { "name": "block_14_depthwise/depthwise_kernel", "shape": [3, 3, 960, 1], "dtype": "float32" },
                { "name": "block_14_depthwise_BN/gamma", "shape": [960], "dtype": "float32" },
                { "name": "block_14_depthwise_BN/beta", "shape": [960], "dtype": "float32" },
                { "name": "block_14_depthwise_BN/moving_mean", "shape": [960], "dtype": "float32" },
                { "name": "block_14_depthwise_BN/moving_variance", "shape": [960], "dtype": "float32" },
                { "name": "block_14_dw/depthwise_kernel", "shape": [3, 3, 256, 1], "dtype": "float32" },
                { "name": "block_14_dw_bn/gamma", "shape": [256], "dtype": "float32" },
                { "name": "block_14_dw_bn/beta", "shape": [256], "dtype": "float32" },
                { "name": "block_14_dw_bn/moving_mean", "shape": [256], "dtype": "float32" },
                { "name": "block_14_dw_bn/moving_variance", "shape": [256], "dtype": "float32" },
                { "name": "block_14_expand/kernel", "shape": [1, 1, 160, 960], "dtype": "float32" },
                { "name": "block_14_expand_BN/gamma", "shape": [960], "dtype": "float32" },
                { "name": "block_14_expand_BN/beta", "shape": [960], "dtype": "float32" },
                { "name": "block_14_expand_BN/moving_mean", "shape": [960], "dtype": "float32" },
                { "name": "block_14_expand_BN/moving_variance", "shape": [960], "dtype": "float32" },
                { "name": "block_14_project/kernel", "shape": [1, 1, 960, 160], "dtype": "float32" },
                { "name": "block_14_project_BN/gamma", "shape": [160], "dtype": "float32" },
                { "name": "block_14_project_BN/beta", "shape": [160], "dtype": "float32" },
                { "name": "block_14_project_BN/moving_mean", "shape": [160], "dtype": "float32" },
                { "name": "block_14_project_BN/moving_variance", "shape": [160], "dtype": "float32" },
                { "name": "block_15_bn1/gamma", "shape": [128], "dtype": "float32" },
                { "name": "block_15_bn1/beta", "shape": [128], "dtype": "float32" },
                { "name": "block_15_bn1/moving_mean", "shape": [128], "dtype": "float32" },
                { "name": "block_15_bn1/moving_variance", "shape": [128], "dtype": "float32" },
                { "name": "block_15_bn2/gamma", "shape": [256], "dtype": "float32" },
                { "name": "block_15_bn2/beta", "shape": [256], "dtype": "float32" },
                { "name": "block_15_bn2/moving_mean", "shape": [256], "dtype": "float32" },
                { "name": "block_15_bn2/moving_variance", "shape": [256], "dtype": "float32" },
                { "name": "block_15_conv1/kernel", "shape": [1, 1, 512, 128], "dtype": "float32" },
                { "name": "block_15_conv2/kernel", "shape": [1, 1, 128, 256], "dtype": "float32" },
                { "name": "block_15_depthwise/depthwise_kernel", "shape": [3, 3, 960, 1], "dtype": "float32" },
                { "name": "block_15_depthwise_BN/gamma", "shape": [960], "dtype": "float32" },
                { "name": "block_15_depthwise_BN/beta", "shape": [960], "dtype": "float32" },
                { "name": "block_15_depthwise_BN/moving_mean", "shape": [960], "dtype": "float32" },
                { "name": "block_15_depthwise_BN/moving_variance", "shape": [960], "dtype": "float32" },
                { "name": "block_15_dw/depthwise_kernel", "shape": [3, 3, 128, 1], "dtype": "float32" },
                { "name": "block_15_dw_bn/gamma", "shape": [128], "dtype": "float32" },
                { "name": "block_15_dw_bn/beta", "shape": [128], "dtype": "float32" },
                { "name": "block_15_dw_bn/moving_mean", "shape": [128], "dtype": "float32" },
                { "name": "block_15_dw_bn/moving_variance", "shape": [128], "dtype": "float32" },
                { "name": "block_15_expand/kernel", "shape": [1, 1, 160, 960], "dtype": "float32" },
                { "name": "block_15_expand_BN/gamma", "shape": [960], "dtype": "float32" },
                { "name": "block_15_expand_BN/beta", "shape": [960], "dtype": "float32" },
                { "name": "block_15_expand_BN/moving_mean", "shape": [960], "dtype": "float32" },
                { "name": "block_15_expand_BN/moving_variance", "shape": [960], "dtype": "float32" },
                { "name": "block_15_project/kernel", "shape": [1, 1, 960, 160], "dtype": "float32" },
                { "name": "block_15_project_BN/gamma", "shape": [160], "dtype": "float32" },
                { "name": "block_15_project_BN/beta", "shape": [160], "dtype": "float32" },
                { "name": "block_15_project_BN/moving_mean", "shape": [160], "dtype": "float32" },
                { "name": "block_15_project_BN/moving_variance", "shape": [160], "dtype": "float32" },
                { "name": "block_16_bn1/gamma", "shape": [128], "dtype": "float32" },
                { "name": "block_16_bn1/beta", "shape": [128], "dtype": "float32" },
                { "name": "block_16_bn1/moving_mean", "shape": [128], "dtype": "float32" },
                { "name": "block_16_bn1/moving_variance", "shape": [128], "dtype": "float32" },
                { "name": "block_16_bn2/gamma", "shape": [256], "dtype": "float32" },
                { "name": "block_16_bn2/beta", "shape": [256], "dtype": "float32" },
                { "name": "block_16_bn2/moving_mean", "shape": [256], "dtype": "float32" },
                { "name": "block_16_bn2/moving_variance", "shape": [256], "dtype": "float32" },
                { "name": "block_16_conv1/kernel", "shape": [1, 1, 256, 128], "dtype": "float32" },
                { "name": "block_16_conv2/kernel", "shape": [1, 1, 128, 256], "dtype": "float32" },
                { "name": "block_16_depthwise/depthwise_kernel", "shape": [3, 3, 960, 1], "dtype": "float32" },
                { "name": "block_16_depthwise_BN/gamma", "shape": [960], "dtype": "float32" },
                { "name": "block_16_depthwise_BN/beta", "shape": [960], "dtype": "float32" },
                { "name": "block_16_depthwise_BN/moving_mean", "shape": [960], "dtype": "float32" },
                { "name": "block_16_depthwise_BN/moving_variance", "shape": [960], "dtype": "float32" },
                { "name": "block_16_dw/depthwise_kernel", "shape": [3, 3, 128, 1], "dtype": "float32" },
                { "name": "block_16_dw_bn/gamma", "shape": [128], "dtype": "float32" },
                { "name": "block_16_dw_bn/beta", "shape": [128], "dtype": "float32" },
                { "name": "block_16_dw_bn/moving_mean", "shape": [128], "dtype": "float32" },
                { "name": "block_16_dw_bn/moving_variance", "shape": [128], "dtype": "float32" },
                { "name": "block_16_expand/kernel", "shape": [1, 1, 160, 960], "dtype": "float32" },
                { "name": "block_16_expand_BN/gamma", "shape": [960], "dtype": "float32" },
                { "name": "block_16_expand_BN/beta", "shape": [960], "dtype": "float32" },
                { "name": "block_16_expand_BN/moving_mean", "shape": [960], "dtype": "float32" },
                { "name": "block_16_expand_BN/moving_variance", "shape": [960], "dtype": "float32" },
                { "name": "block_16_project/kernel", "shape": [1, 1, 960, 320], "dtype": "float32" },
                { "name": "block_16_project_BN/gamma", "shape": [320], "dtype": "float32" },
                { "name": "block_16_project_BN/beta", "shape": [320], "dtype": "float32" },
                { "name": "block_16_project_BN/moving_mean", "shape": [320], "dtype": "float32" },
                { "name": "block_16_project_BN/moving_variance", "shape": [320], "dtype": "float32" },
                { "name": "block_17_bn1/gamma", "shape": [64], "dtype": "float32" },
                { "name": "block_17_bn1/beta", "shape": [64], "dtype": "float32" },
                { "name": "block_17_bn1/moving_mean", "shape": [64], "dtype": "float32" },
                { "name": "block_17_bn1/moving_variance", "shape": [64], "dtype": "float32" },
                { "name": "block_17_bn2/gamma", "shape": [128], "dtype": "float32" },
                { "name": "block_17_bn2/beta", "shape": [128], "dtype": "float32" },
                { "name": "block_17_bn2/moving_mean", "shape": [128], "dtype": "float32" },
                { "name": "block_17_bn2/moving_variance", "shape": [128], "dtype": "float32" },
                { "name": "block_17_conv1/kernel", "shape": [1, 1, 256, 64], "dtype": "float32" },
                { "name": "block_17_conv2/kernel", "shape": [1, 1, 64, 128], "dtype": "float32" },
                { "name": "block_17_dw/depthwise_kernel", "shape": [3, 3, 64, 1], "dtype": "float32" },
                { "name": "block_17_dw_bn/gamma", "shape": [64], "dtype": "float32" },
                { "name": "block_17_dw_bn/beta", "shape": [64], "dtype": "float32" },
                { "name": "block_17_dw_bn/moving_mean", "shape": [64], "dtype": "float32" },
                { "name": "block_17_dw_bn/moving_variance", "shape": [64], "dtype": "float32" },
                { "name": "block_1_depthwise/depthwise_kernel", "shape": [3, 3, 96, 1], "dtype": "float32" },
                { "name": "block_1_depthwise_BN/gamma", "shape": [96], "dtype": "float32" },
                { "name": "block_1_depthwise_BN/beta", "shape": [96], "dtype": "float32" },
                { "name": "block_1_depthwise_BN/moving_mean", "shape": [96], "dtype": "float32" },
                { "name": "block_1_depthwise_BN/moving_variance", "shape": [96], "dtype": "float32" },
                { "name": "block_1_expand/kernel", "shape": [1, 1, 16, 96], "dtype": "float32" },
                { "name": "block_1_expand_BN/gamma", "shape": [96], "dtype": "float32" },
                { "name": "block_1_expand_BN/beta", "shape": [96], "dtype": "float32" },
                { "name": "block_1_expand_BN/moving_mean", "shape": [96], "dtype": "float32" },
                { "name": "block_1_expand_BN/moving_variance", "shape": [96], "dtype": "float32" },
                { "name": "block_1_project/kernel", "shape": [1, 1, 96, 24], "dtype": "float32" },
                { "name": "block_1_project_BN/gamma", "shape": [24], "dtype": "float32" },
                { "name": "block_1_project_BN/beta", "shape": [24], "dtype": "float32" },
                { "name": "block_1_project_BN/moving_mean", "shape": [24], "dtype": "float32" },
                { "name": "block_1_project_BN/moving_variance", "shape": [24], "dtype": "float32" },
                { "name": "block_2_depthwise/depthwise_kernel", "shape": [3, 3, 144, 1], "dtype": "float32" },
                { "name": "block_2_depthwise_BN/gamma", "shape": [144], "dtype": "float32" },
                { "name": "block_2_depthwise_BN/beta", "shape": [144], "dtype": "float32" },
                { "name": "block_2_depthwise_BN/moving_mean", "shape": [144], "dtype": "float32" },
                { "name": "block_2_depthwise_BN/moving_variance", "shape": [144], "dtype": "float32" },
                { "name": "block_2_expand/kernel", "shape": [1, 1, 24, 144], "dtype": "float32" },
                { "name": "block_2_expand_BN/gamma", "shape": [144], "dtype": "float32" },
                { "name": "block_2_expand_BN/beta", "shape": [144], "dtype": "float32" },
                { "name": "block_2_expand_BN/moving_mean", "shape": [144], "dtype": "float32" },
                { "name": "block_2_expand_BN/moving_variance", "shape": [144], "dtype": "float32" },
                { "name": "block_2_project/kernel", "shape": [1, 1, 144, 24], "dtype": "float32" },
                { "name": "block_2_project_BN/gamma", "shape": [24], "dtype": "float32" },
                { "name": "block_2_project_BN/beta", "shape": [24], "dtype": "float32" },
                { "name": "block_2_project_BN/moving_mean", "shape": [24], "dtype": "float32" },
                { "name": "block_2_project_BN/moving_variance", "shape": [24], "dtype": "float32" },
                { "name": "block_3_depthwise/depthwise_kernel", "shape": [3, 3, 144, 1], "dtype": "float32" },
                { "name": "block_3_depthwise_BN/gamma", "shape": [144], "dtype": "float32" },
                { "name": "block_3_depthwise_BN/beta", "shape": [144], "dtype": "float32" },
                { "name": "block_3_depthwise_BN/moving_mean", "shape": [144], "dtype": "float32" },
                { "name": "block_3_depthwise_BN/moving_variance", "shape": [144], "dtype": "float32" },
                { "name": "block_3_expand/kernel", "shape": [1, 1, 24, 144], "dtype": "float32" },
                { "name": "block_3_expand_BN/gamma", "shape": [144], "dtype": "float32" },
                { "name": "block_3_expand_BN/beta", "shape": [144], "dtype": "float32" },
                { "name": "block_3_expand_BN/moving_mean", "shape": [144], "dtype": "float32" },
                { "name": "block_3_expand_BN/moving_variance", "shape": [144], "dtype": "float32" },
                { "name": "block_3_project/kernel", "shape": [1, 1, 144, 32], "dtype": "float32" },
                { "name": "block_3_project_BN/gamma", "shape": [32], "dtype": "float32" },
                { "name": "block_3_project_BN/beta", "shape": [32], "dtype": "float32" },
                { "name": "block_3_project_BN/moving_mean", "shape": [32], "dtype": "float32" },
                { "name": "block_3_project_BN/moving_variance", "shape": [32], "dtype": "float32" },
                { "name": "block_4_depthwise/depthwise_kernel", "shape": [3, 3, 192, 1], "dtype": "float32" },
                { "name": "block_4_depthwise_BN/gamma", "shape": [192], "dtype": "float32" },
                { "name": "block_4_depthwise_BN/beta", "shape": [192], "dtype": "float32" },
                { "name": "block_4_depthwise_BN/moving_mean", "shape": [192], "dtype": "float32" },
                { "name": "block_4_depthwise_BN/moving_variance", "shape": [192], "dtype": "float32" },
                { "name": "block_4_expand/kernel", "shape": [1, 1, 32, 192], "dtype": "float32" },
                { "name": "block_4_expand_BN/gamma", "shape": [192], "dtype": "float32" },
                { "name": "block_4_expand_BN/beta", "shape": [192], "dtype": "float32" },
                { "name": "block_4_expand_BN/moving_mean", "shape": [192], "dtype": "float32" },
                { "name": "block_4_expand_BN/moving_variance", "shape": [192], "dtype": "float32" },
                { "name": "block_4_project/kernel", "shape": [1, 1, 192, 32], "dtype": "float32" },
                { "name": "block_4_project_BN/gamma", "shape": [32], "dtype": "float32" },
                { "name": "block_4_project_BN/beta", "shape": [32], "dtype": "float32" },
                { "name": "block_4_project_BN/moving_mean", "shape": [32], "dtype": "float32" },
                { "name": "block_4_project_BN/moving_variance", "shape": [32], "dtype": "float32" },
                { "name": "block_5_depthwise/depthwise_kernel", "shape": [3, 3, 192, 1], "dtype": "float32" },
                { "name": "block_5_depthwise_BN/gamma", "shape": [192], "dtype": "float32" },
                { "name": "block_5_depthwise_BN/beta", "shape": [192], "dtype": "float32" },
                { "name": "block_5_depthwise_BN/moving_mean", "shape": [192], "dtype": "float32" },
                { "name": "block_5_depthwise_BN/moving_variance", "shape": [192], "dtype": "float32" },
                { "name": "block_5_expand/kernel", "shape": [1, 1, 32, 192], "dtype": "float32" },
                { "name": "block_5_expand_BN/gamma", "shape": [192], "dtype": "float32" },
                { "name": "block_5_expand_BN/beta", "shape": [192], "dtype": "float32" },
                { "name": "block_5_expand_BN/moving_mean", "shape": [192], "dtype": "float32" },
                { "name": "block_5_expand_BN/moving_variance", "shape": [192], "dtype": "float32" },
                { "name": "block_5_project/kernel", "shape": [1, 1, 192, 32], "dtype": "float32" },
                { "name": "block_5_project_BN/gamma", "shape": [32], "dtype": "float32" },
                { "name": "block_5_project_BN/beta", "shape": [32], "dtype": "float32" },
                { "name": "block_5_project_BN/moving_mean", "shape": [32], "dtype": "float32" },
                { "name": "block_5_project_BN/moving_variance", "shape": [32], "dtype": "float32" },
                { "name": "block_6_depthwise/depthwise_kernel", "shape": [3, 3, 192, 1], "dtype": "float32" },
                { "name": "block_6_depthwise_BN/gamma", "shape": [192], "dtype": "float32" },
                { "name": "block_6_depthwise_BN/beta", "shape": [192], "dtype": "float32" },
                { "name": "block_6_depthwise_BN/moving_mean", "shape": [192], "dtype": "float32" },
                { "name": "block_6_depthwise_BN/moving_variance", "shape": [192], "dtype": "float32" },
                { "name": "block_6_expand/kernel", "shape": [1, 1, 32, 192], "dtype": "float32" },
                { "name": "block_6_expand_BN/gamma", "shape": [192], "dtype": "float32" },
                { "name": "block_6_expand_BN/beta", "shape": [192], "dtype": "float32" },
                { "name": "block_6_expand_BN/moving_mean", "shape": [192], "dtype": "float32" },
                { "name": "block_6_expand_BN/moving_variance", "shape": [192], "dtype": "float32" },
                { "name": "block_6_project/kernel", "shape": [1, 1, 192, 64], "dtype": "float32" },
                { "name": "block_6_project_BN/gamma", "shape": [64], "dtype": "float32" },
                { "name": "block_6_project_BN/beta", "shape": [64], "dtype": "float32" },
                { "name": "block_6_project_BN/moving_mean", "shape": [64], "dtype": "float32" },
                { "name": "block_6_project_BN/moving_variance", "shape": [64], "dtype": "float32" },
                { "name": "block_7_depthwise/depthwise_kernel", "shape": [3, 3, 384, 1], "dtype": "float32" },
                { "name": "block_7_depthwise_BN/gamma", "shape": [384], "dtype": "float32" },
                { "name": "block_7_depthwise_BN/beta", "shape": [384], "dtype": "float32" },
                { "name": "block_7_depthwise_BN/moving_mean", "shape": [384], "dtype": "float32" },
                { "name": "block_7_depthwise_BN/moving_variance", "shape": [384], "dtype": "float32" },
                { "name": "block_7_expand/kernel", "shape": [1, 1, 64, 384], "dtype": "float32" },
                { "name": "block_7_expand_BN/gamma", "shape": [384], "dtype": "float32" },
                { "name": "block_7_expand_BN/beta", "shape": [384], "dtype": "float32" },
                { "name": "block_7_expand_BN/moving_mean", "shape": [384], "dtype": "float32" },
                { "name": "block_7_expand_BN/moving_variance", "shape": [384], "dtype": "float32" },
                { "name": "block_7_project/kernel", "shape": [1, 1, 384, 64], "dtype": "float32" },
                { "name": "block_7_project_BN/gamma", "shape": [64], "dtype": "float32" },
                { "name": "block_7_project_BN/beta", "shape": [64], "dtype": "float32" },
                { "name": "block_7_project_BN/moving_mean", "shape": [64], "dtype": "float32" },
                { "name": "block_7_project_BN/moving_variance", "shape": [64], "dtype": "float32" },
                { "name": "block_8_depthwise/depthwise_kernel", "shape": [3, 3, 384, 1], "dtype": "float32" },
                { "name": "block_8_depthwise_BN/gamma", "shape": [384], "dtype": "float32" },
                { "name": "block_8_depthwise_BN/beta", "shape": [384], "dtype": "float32" },
                { "name": "block_8_depthwise_BN/moving_mean", "shape": [384], "dtype": "float32" },
                { "name": "block_8_depthwise_BN/moving_variance", "shape": [384], "dtype": "float32" },
                { "name": "block_8_expand/kernel", "shape": [1, 1, 64, 384], "dtype": "float32" },
                { "name": "block_8_expand_BN/gamma", "shape": [384], "dtype": "float32" },
                { "name": "block_8_expand_BN/beta", "shape": [384], "dtype": "float32" },
                { "name": "block_8_expand_BN/moving_mean", "shape": [384], "dtype": "float32" },
                { "name": "block_8_expand_BN/moving_variance", "shape": [384], "dtype": "float32" },
                { "name": "block_8_project/kernel", "shape": [1, 1, 384, 64], "dtype": "float32" },
                { "name": "block_8_project_BN/gamma", "shape": [64], "dtype": "float32" },
                { "name": "block_8_project_BN/beta", "shape": [64], "dtype": "float32" },
                { "name": "block_8_project_BN/moving_mean", "shape": [64], "dtype": "float32" },
                { "name": "block_8_project_BN/moving_variance", "shape": [64], "dtype": "float32" },
                { "name": "block_9_depthwise/depthwise_kernel", "shape": [3, 3, 384, 1], "dtype": "float32" },
                { "name": "block_9_depthwise_BN/gamma", "shape": [384], "dtype": "float32" },
                { "name": "block_9_depthwise_BN/beta", "shape": [384], "dtype": "float32" },
                { "name": "block_9_depthwise_BN/moving_mean", "shape": [384], "dtype": "float32" },
                { "name": "block_9_depthwise_BN/moving_variance", "shape": [384], "dtype": "float32" },
                { "name": "block_9_expand/kernel", "shape": [1, 1, 64, 384], "dtype": "float32" },
                { "name": "block_9_expand_BN/gamma", "shape": [384], "dtype": "float32" },
                { "name": "block_9_expand_BN/beta", "shape": [384], "dtype": "float32" },
                { "name": "block_9_expand_BN/moving_mean", "shape": [384], "dtype": "float32" },
                { "name": "block_9_expand_BN/moving_variance", "shape": [384], "dtype": "float32" },
                { "name": "block_9_project/kernel", "shape": [1, 1, 384, 64], "dtype": "float32" },
                { "name": "block_9_project_BN/gamma", "shape": [64], "dtype": "float32" },
                { "name": "block_9_project_BN/beta", "shape": [64], "dtype": "float32" },
                { "name": "block_9_project_BN/moving_mean", "shape": [64], "dtype": "float32" },
                { "name": "block_9_project_BN/moving_variance", "shape": [64], "dtype": "float32" },
                { "name": "bn_Conv1/gamma", "shape": [32], "dtype": "float32" },
                { "name": "bn_Conv1/beta", "shape": [32], "dtype": "float32" },
                { "name": "bn_Conv1/moving_mean", "shape": [32], "dtype": "float32" },
                { "name": "bn_Conv1/moving_variance", "shape": [32], "dtype": "float32" },
                { "name": "cls_0_conv/kernel", "shape": [1, 1, 576, 84], "dtype": "float32" },
                { "name": "cls_0_conv/bias", "shape": [84], "dtype": "float32" },
                { "name": "cls_1_conv/kernel", "shape": [1, 1, 1280, 126], "dtype": "float32" },
                { "name": "cls_1_conv/bias", "shape": [126], "dtype": "float32" },
                { "name": "cls_2_conv/kernel", "shape": [1, 1, 512, 126], "dtype": "float32" },
                { "name": "cls_2_conv/bias", "shape": [126], "dtype": "float32" },
                { "name": "cls_3_conv/kernel", "shape": [1, 1, 256, 126], "dtype": "float32" },
                { "name": "cls_3_conv/bias", "shape": [126], "dtype": "float32" },
                { "name": "cls_4_conv/kernel", "shape": [1, 1, 256, 84], "dtype": "float32" },
                { "name": "cls_4_conv/bias", "shape": [84], "dtype": "float32" },
                { "name": "cls_5_conv/kernel", "shape": [1, 1, 128, 84], "dtype": "float32" },
                { "name": "cls_5_conv/bias", "shape": [84], "dtype": "float32" },
                { "name": "expanded_conv_depthwise/depthwise_kernel", "shape": [3, 3, 32, 1], "dtype": "float32" },
                { "name": "expanded_conv_depthwise_BN/gamma", "shape": [32], "dtype": "float32" },
                { "name": "expanded_conv_depthwise_BN/beta", "shape": [32], "dtype": "float32" },
                { "name": "expanded_conv_depthwise_BN/moving_mean", "shape": [32], "dtype": "float32" },
                { "name": "expanded_conv_depthwise_BN/moving_variance", "shape": [32], "dtype": "float32" },
                { "name": "expanded_conv_project/kernel", "shape": [1, 1, 32, 16], "dtype": "float32" },
                { "name": "expanded_conv_project_BN/gamma", "shape": [16], "dtype": "float32" },
                { "name": "expanded_conv_project_BN/beta", "shape": [16], "dtype": "float32" },
                { "name": "expanded_conv_project_BN/moving_mean", "shape": [16], "dtype": "float32" },
                { "name": "expanded_conv_project_BN/moving_variance", "shape": [16], "dtype": "float32" },
                { "name": "loc_0_conv/kernel", "shape": [1, 1, 576, 16], "dtype": "float32" },
                { "name": "loc_0_conv/bias", "shape": [16], "dtype": "float32" },
                { "name": "loc_1_conv/kernel", "shape": [1, 1, 1280, 24], "dtype": "float32" },
                { "name": "loc_1_conv/bias", "shape": [24], "dtype": "float32" },
                { "name": "loc_2_conv/kernel", "shape": [1, 1, 512, 24], "dtype": "float32" },
                { "name": "loc_2_conv/bias", "shape": [24], "dtype": "float32" },
                { "name": "loc_3_conv/kernel", "shape": [1, 1, 256, 24], "dtype": "float32" },
                { "name": "loc_3_conv/bias", "shape": [24], "dtype": "float32" },
                { "name": "loc_4_conv/kernel", "shape": [1, 1, 256, 16], "dtype": "float32" },
                { "name": "loc_4_conv/bias", "shape": [16], "dtype": "float32" },
                { "name": "loc_5_conv/kernel", "shape": [1, 1, 128, 16], "dtype": "float32" },
                { "name": "loc_5_conv/bias", "shape": [16], "dtype": "float32" }
            ]
        }
    ]
}
